Data/GraphSAGE/sage_best.pt (torch, 57827 bytes, 8 tensors)

conv1.lin_l.weight f4 [48, 93]
0	0xbc81b862	-0.01583499
1	0xbe87c647	-0.2651846
2	0xbebb0e61	-0.36534408
3	0xbe807e83	-0.2509652
4	0x3c9d6adf	0.019216
5	0xbe89e4fc	-0.26932514
6	0xbd0dae9c	-0.03459035
7	0x3d002c1a	0.03129206
8	0x3b315f84	0.0027064988
9	0x3c9c00ec	0.019043408
10	0x3d054d75	0.032544572
11	0xbd9b34f7	-0.075784616
12	0xbd5d4fda	-0.05403123
13	0x3c9d7a15	0.019223252
14	0xbdbe4a17	-0.09291475
15	0xbe36b23c	-0.17841429
16	0xbc3476cb	-0.011014651
17	0x3ce5a86b	0.02803441
18	0xbd8ea1ff	-0.06964492
19	0xbed7f7fd	-0.42181388
20	0xbeddff73	-0.43358955
21	0xb80fcc80	-3.4284312e-05
22	0xbc0cc1b7	-0.008591107
23	0xba223524	-0.0006187728
24	0x3af25894	0.0018489533
25	0x3d9f239e	0.07770465
26	0xbd316199	-0.043305967
27	0xb7da9880	-2.6058638e-05
28	0xbc0ce9d0	-0.008600667
29	0xba2135f8	-0.00061497046
30	0x3af277e0	0.001849886
31	0x3d9fcee9	0.07803137
32	0xbd30ec04	-0.043193832
33	0xbce2eb45	-0.027700076
34	0xbd0132f3	-0.03154273
35	0x3cf31f21	0.02967793
36	0xbcbab0cd	-0.022789383
37	0x3e01a750	0.12661481
38	0x3e315457	0.1731733
39	0x3e7c41f4	0.24634534
40	0x3e625506	0.22102746
41	0x3d0b613f	0.034028288
42	0x3e7f98c2	0.24960616
43	0xbe0b038f	-0.13575576
44	0xbdeee43a	-0.116646245
45	0x3e80cc17	0.25155708
46	0x3e76edec	0.24114197
47	0x3d8053a0	0.0626595
48	0x3e81df4f	0.25365683
49	0xbe0c149a	-0.13679734
50	0xbde03ae6	-0.10948734
51	0x3e0f0b0e	0.13969061
52	0x3e006904	0.1254006
53	0xbcbe8df9	-0.023261057
54	0x3e06b91e	0.13156554
55	0xbdd2fafb	-0.10301777
56	0xbd9f8a63	-0.07790067
57	0x3ba2086a	0.0049448507
58	0xbd05b310	-0.03264147
59	0xbcc8e2ba	-0.024522174
60	0xbc973ab6	-0.018460613
61	0xbe574c2d	-0.21025153
62	0xbe5e8306	-0.21729669
63	0x3bab88c9	0.005234812
64	0xbd05b0b8	-0.032639235
65	0xbcc8b227	-0.024499012
66	0xbc97587e	-0.018474814
67	0xbe5d5732	-0.21615294
68	0xbe649b2b	-0.22324817
69	0xbd832e64	-0.06405333
70	0xbe18ab71	-0.1490915
71	0x3bd077ee	0.006361953
72	0xbe3407dc	-0.17581123
73	0x3e1aa6eb	0.15102737
74	0x3df2f2b4	0.11862698
75	0x3e2f4a6f	0.17118238
76	0x3e4e1c53	0.20127992
77	0x3e6c6a3c	0.230874
78	0x3e855e85	0.26048675
79	0xbda96e31	-0.082729705
80	0xbd927872	-0.07151879
81	0x3e4e808b	0.20166223
82	0x3e5d1c78	0.21592891
83	0x3e812411	0.2522283
84	0x3e923d6a	0.2856248
85	0x3c87bec4	0.016570456
86	0x3d09ba87	0.033625152
87	0xbe3959f7	-0.18100725
88	0x3bf2ac3a	0.007405785
89	0x3e6c3f19	0.23070945
90	0x3d71992f	0.058983978
91	0xbe4847ec	-0.19558686
92	0xbe0d6efd	-0.1381187
93	0x3dbb6c67	0.091515355
94	0xbe02dd51	-0.12779738
95	0xbe284fec	-0.16436738
96	0x3e46330b	0.19355409
97	0x3dead68c	0.11466703
98	0x3e91c245	0.28468528
99	0xbdd7f891	-0.10545457
100	0xbaddcf42	-0.001692273
101	0x3ddcead2	0.10786976
102	0x3daadb6f	0.08342635
103	0xbd100e9c	-0.035170183
104	0x3ad23d41	0.0016039984
105	0xb72c5fa0	-1.0274263e-05
106	0x3dea1eb4	0.114316374
107	0x3e0e54b6	0.13899502
108	0x394ad5c0	0.00019343849
109	0xbcfdd571	-0.030985566
110	0xbdb52cb5	-0.08846418
111	0xbcf48284	-0.029847391
112	0xbded8e52	-0.11599411
113	0xbdcd1a98	-0.10014838
114	0xbe80348d	-0.25040093
115	0xbeeb3628	-0.45939755
116	0xbed146e1	-0.4087439
117	0xbecb93ce	-0.39761204
118	0x3dd34650	0.103161454
119	0xbda55bbd	-0.08074138
120	0xbe7ec17c	-0.24878496
121	0xbee4d8f3	-0.4469677
122	0xbed34214	-0.4126135
123	0xbece4b66	-0.402919
124	0x3de042e5	0.10950259
125	0xbdc51968	-0.096239865
126	0xbc352141	-0.011055292
127	0xbce85366	-0.02836008
128	0x3d75f3ca	0.06004695
129	0xbc88f941	-0.016720416
130	0xbe743c9e	-0.23851249
131	0xbe9d62aa	-0.30739337
132	0xbcb6779b	-0.02227383
133	0xbe297b2d	-0.16550894
134	0xbe8f02e6	-0.279319
135	0xbe059d17	-0.13048206
136	0x3d1a02a0	0.03760016
137	0xbd48db35	-0.049037177
138	0xbd142c6e	-0.036175184
139	0xbe2cfd68	-0.16893542
140	0xbec79f03	-0.38988504
141	0xbe083946	-0.13303098
142	0x3826ca40	3.9765844e-05
143	0xbdf3d065	-0.119049825
144	0xbdfd1006	-0.12356572
145	0x3dd7dd89	0.10540301
146	0x3db3de3e	0.08782624
147	0xbd711a0a	-0.058862723
148	0xbce5700c	-0.02800753
149	0xbc5018bc	-0.01270121
150	0xbde46142	-0.11151363
151	0xbede1d74	-0.43381846
152	0xbef10891	-0.47076848
153	0xbee51f9e	-0.44750684
154	0xbbc5e049	-0.0060386998
155	0x3cefa745	0.029254565
156	0xbde89578	-0.11356634
157	0xbefd5872	-0.4948154
158	0xbedd357c	-0.43204868
159	0xbef29bec	-0.47384584
160	0x3c68e1d2	0.014213996
161	0x3dde82d3	0.108647965
162	0xbdb522c5	-0.088445224
163	0x3e24caf7	0.1609305
164	0x3d9232a2	0.07138564
165	0x3c29202e	0.010322614
166	0x3dba3107	0.090913825
167	0x3c9f681a	0.01945882
168	0xbd76193f	-0.06008267
169	0xbdd41861	-0.103562124
170	0xbe05dce0	-0.13072538
171	0xbe01eb92	-0.12687519
172	0x3e206c54	0.15666324
173	0x3e25fec2	0.16210464
174	0x3dee38ed	0.116319515
175	0xbd5b9559	-0.053609226
176	0xbce66d5a	-0.028128315
177	0xbc0f2b6e	-0.008738382
178	0x3c8040ea	0.015655953
179	0xbd9da848	-0.07698113
180	0x3e20131a	0.15632287
181	0x3e0ab8cf	0.13547061
182	0xbe72adc3	-0.23699097
183	0xbda8dee6	-0.082456395
184	0x3e514bf8	0.20439136
185	0x3ddc28f0	0.10749996
186	0xbe5abb54	-0.21360523
187	0xbea77270	-0.32704496
188	0xbd490705	-0.04907896
189	0x3ebd79f0	0.37007093
190	0x3e576a02	0.21036533
191	0x3eb43e6d	0.35203877
192	0xbdb4e023	-0.08831813
193	0xbdfc3373	-0.12314501
194	0xbe415051	-0.18878295
195	0x3dae9e9c	0.08526346
196	0xbe285ca7	-0.16441594
197	0x3dfada00	0.122486115
198	0xbe0293be	-0.12751672
199	0x3e57327c	0.21015352
200	0xbe0010bd	-0.12506385
201	0x3e2925de	0.16518351
202	0xbe7f695e	-0.24942538
203	0xbeb14215	-0.3462073
204	0xbe9a3772	-0.30120426
205	0xbd8a8ff7	-0.0676574
206	0xbdecbb1f	-0.11559128
207	0x3c35a8de	0.011087624
208	0xbd08cc22	-0.0333978
209	0xbd098d6e	-0.033582143
210	0xbc5f0152	-0.013611155
211	0x3d959220	0.07303262
212	0xbdca5e8d	-0.098813154
213	0x3c2a6359	0.010399663
214	0xbd69676e	-0.056983404
215	0xbc8c5674	-0.017131068
216	0xbbc65c92	-0.0060535157
217	0x3d80142d	0.06253848
218	0xbdbbc7ce	-0.09168969
219	0xbe7e96f0	-0.24862266
220	0xbda77a60	-0.08177638
221	0x3ee10a93	0.4395338
222	0xbe2249ef	-0.15848516
223	0x3dc7a075	0.097474016
224	0x3e2c1468	0.1680466
225	0xbd241662	-0.04006041
226	0x3de336f6	0.11094467
227	0x3ec960ee	0.39331764
228	0x3d22bd98	0.039731592
229	0xbdc2255a	-0.094797805
230	0xbe417e92	-0.18895939
231	0xbd08e446	-0.033420824
232	0x3a4fe488	0.0007930477
233	0x3e4068d2	0.18789986
234	0xbd1f399f	-0.03887331
235	0xbda52f29	-0.08065636
236	0xbe2bfd2b	-0.16795795
237	0x3db65fa8	0.08904964
238	0x3d961df2	0.0732993
239	0xbe138fc3	-0.1441031
240	0xbd6d870b	-0.057990115
241	0xbe26b9d4	-0.16281825
242	0xbe3fdb54	-0.18736011
243	0xbe5786c3	-0.21047501
244	0xbe089d38	-0.13341224
245	0xbd721e62	-0.059111007
246	0xbd43f296	-0.04783877
247	0xbe36713e	-0.17816636
248	0xbe251f8b	-0.16125314
249	0xbe569feb	-0.20959441
250	0xbdfce244	-0.12347844
251	0xbdc8e928	-0.09810096
252	0xbd912dff	-0.07088851
253	0xbe81c599	-0.25346068
254	0xbe487740	-0.1957674
255	0xbd29f919	-0.041497324

conv1.lin_l.bias f4 [48]
0	0xbf38ef3b	-0.72240037
1	0x3f0a1d4f	0.5395097
2	0x3e82fe61	0.255847
3	0xbe55950e	-0.20857641
4	0xbebb1c11	-0.3654485
5	0x3e99a383	0.30007562
6	0x3dce7dcb	0.10082587
7	0xbf2021d5	-0.62551624
8	0xbdcd551a	-0.100259975
9	0x3eb293df	0.34878442
10	0xbef5bf85	-0.4799768
11	0xbf563310	-0.83671665
12	0xbf34ce50	-0.7062731
13	0xbe5dc465	-0.2165695
14	0xbed5dd4e	-0.41770405
15	0xbe9108ff	-0.28327176
16	0xbe305643	-0.17220406
17	0xbf0b4a3f	-0.54410166
18	0x3e20e303	0.15711598
19	0xbebb3d9f	-0.3657045
20	0xbece5922	-0.40302378
21	0xbdcd8d2f	-0.10036694
22	0xbeaf09ec	-0.34187257
23	0x3e87bb43	0.26510057
24	0xbf1a8a80	-0.60367584
25	0xbe9dccdf	-0.30820367
26	0xbea4bf8b	-0.32177386
27	0xbf0465b0	-0.5171766
28	0xbd88a0f1	-0.06671322
29	0xbec9407f	-0.3930702
30	0xbecf1573	-0.40446052
31	0x3f0170f3	0.5056297
32	0xbed3227f	-0.41237256
33	0xbda34fd8	-0.07974213
34	0xbd90bc6f	-0.07067191
35	0xbf85afa7	-1.044423
36	0xbf10156f	-0.56282705
37	0xbe5133a5	-0.20429857
38	0xbf428fb3	-0.7600052
39	0xbe230aca	-0.15922084
40	0xbf70259f	-0.93807405
41	0xbfc0d207	-1.5064095
42	0xbf31e92a	-0.69496405
43	0xbeeb25f6	-0.459274
44	0x3ec23d53	0.37937412
45	0x3e036242	0.12830451
46	0xbe0adf67	-0.13561784
47	0x3e56fd8b	0.20995156

conv1.lin_r.weight f4 [48, 93]
0	0xbc4a6e03	-0.01235533
1	0xbddb2633	-0.10700645
2	0xbd9c7060	-0.07638621
3	0x3dd5b22f	0.104343764
4	0x3dd78b11	0.10524572
5	0x3e31971f	0.17342804
6	0x3ca334f3	0.01992271
7	0xbc2195dc	-0.009862389
8	0x3be25227	0.006906766
9	0x3d802258	0.062565506
10	0x3c7d0432	0.015442895
11	0xbe488397	-0.19581448
12	0xbe13d95e	-0.14438388
13	0x3dd798d2	0.10527195
14	0xbad3ec64	-0.0016168472
15	0x3c9b74a2	0.018976513
16	0xbcba17e4	-0.02271647
17	0xbdd6ed85	-0.10494522
18	0xbe0dd659	-0.13851298
19	0x3a3b34a4	0.0007141328
20	0xbca92084	-0.020645387
21	0x3de91c81	0.1138239
22	0x3e192ac3	0.14957719
23	0x3de33eee	0.11095987
24	0x3e1d6231	0.15369488
25	0xbed13d67	-0.4086716
26	0xbedb1740	-0.42791176
27	0x3de920c1	0.113832004
28	0x3e193197	0.14960323
29	0x3de31d96	0.110896274
30	0x3e1d50b2	0.15362814
31	0xbed217bc	-0.41033733
32	0xbed8b41b	-0.4232491
33	0x3b92ffbf	0.0044860537
34	0xbd5bfc7d	-0.05370759
35	0x3cb94e29	0.022620277
36	0x3bcb0c29	0.006196518
37	0xbdd371de	-0.10324453
38	0xbdd4fbd9	-0.10399599
39	0xbd7543d1	-0.059879128
40	0x38a23380	7.7343546e-05
41	0x3e08ac38	0.13346946
42	0xbcdc3851	-0.026882323
43	0xbeec6883	-0.46173486
44	0xbeef1c93	-0.46701488
45	0xbd9f825b	-0.07788535
46	0xbce22a1e	-0.027607974
47	0x3e33ed9f	0.17571114
48	0xbd58d32f	-0.052935775
49	0xbee092fe	-0.43862146
50	0xbedb229b	-0.4279984
51	0xbd26326d	-0.040575434
52	0x3d329a64	0.04360427
53	0x3e22da9c	0.15903705
54	0x3d756643	0.059911977
55	0xbc16a512	-0.009194629
56	0x3d65e54a	0.05612687
57	0x3c8e6b8c	0.017385267
58	0x3debd9b5	0.11516134
59	0x3dfb03eb	0.12256607
60	0x3e027f94	0.1274398
61	0x3e6bc186	0.23023042
62	0x3e506413	0.20350675
63	0x3c8e8c11	0.017400773
64	0x3dec33d4	0.11533323
65	0x3dfaeb65	0.12251929
66	0x3e027093	0.12738256
67	0x3e598a0b	0.21244065
68	0x3e3e0a38	0.18558586
69	0x3aa13150	0.0012298021
70	0xbd3350f6	-0.043778382
71	0xbc46672a	-0.012109557
72	0xbb41dae7	-0.002957994
73	0x3e28c07d	0.16479678
74	0x3e286508	0.1644479
75	0x3c404934	0.011736203
76	0xbcfc1a4c	-0.030774258
77	0xbcb68531	-0.022280307
78	0xbd00994b	-0.03139619
79	0xbbab550a	-0.0052286433
80	0x3be2c1b4	0.006920064
81	0x3de24f81	0.110503204
82	0xbd844b0d	-0.06459627
83	0xbd903b3b	-0.07042547
84	0xbd5d1936	-0.05397912
85	0xbcdce478	-0.026964411
86	0x3c90032a	0.017579634
87	0xbe210ed5	-0.15728314
88	0x3e3b0d81	0.1826687
89	0x3e96dab3	0.2946373
90	0x3dad55b2	0.08463611
91	0x3eaf31ef	0.34217784
92	0x3eb30b96	0.34969777
93	0x3f5a4bfc	0.8527219
94	0xbe65774d	-0.22408791
95	0xbb65f317	-0.003508752
96	0x3e1f3ca2	0.15550473
97	0x3f5adbfe	0.8549193
98	0x3cb17269	0.021661
99	0x3e939bc5	0.2882978
100	0x3f1e0dcd	0.6173981
101	0x3f243ccf	0.64155287
102	0x3e66f42e	0.22554085
103	0x3f1f84c9	0.6231199
104	0x3c6ba0e1	0.014381618
105	0x3efae9fa	0.49006635
106	0x3f5b1631	0.85580736
107	0x3d5ac699	0.053412054
108	0xbe606f87	-0.21917544
109	0x3f2dd3eb	0.67901486
110	0x3edbf892	0.42963082
111	0x3e8e967a	0.2784918
112	0xbeb2b4b9	-0.34903505
113	0xbe64750a	-0.22310272
114	0x3cfe7a20	0.031064093
115	0xbc9f4a5d	-0.019444639
116	0xbdb72654	-0.089428574
117	0xbc0fe04a	-0.008781502
118	0xbe0155dd	-0.1263041
119	0x3d68ceba	0.056837775
120	0x3ccd156e	0.025034633
121	0xbd03639e	-0.032077424
122	0xbddfd08b	-0.10928448
123	0xbcb6ca28	-0.022313192
124	0xbdc71d0b	-0.097223364
125	0x3daa05a1	0.08301855
126	0x3e35cf13	0.17754774
127	0x3e8f0c15	0.27938905
128	0x3dca8a8d	0.09889708
129	0x3e2002a4	0.15626007
130	0xbc7d61ad	-0.015465182
131	0x3cb8867c	0.022525065
132	0xbf4923a1	-0.7856999
133	0xbf24fd8b	-0.64449376
134	0xbd11355c	-0.035451278
135	0xbf41ce22	-0.7570516
136	0xbcc904b1	-0.02453837
137	0xbd938589	-0.07203204
138	0xbf63a195	-0.8891843
139	0xbf4595b9	-0.77181584
140	0xbde29360	-0.11063266
141	0xbf5f860f	-0.8731393
142	0x3e4437f3	0.19161968
143	0x3e023e5a	0.12719098
144	0x3fc58d35	1.5433718
145	0x3fbc8fc8	1.4731379
146	0x3cac6868	0.021045879
147	0x3fa98e7e	1.324661
148	0x3ef5923c	0.4796313
149	0x3f625f0a	0.8842627
150	0x3efb65f9	0.49101236
151	0x3dac4c25	0.08412961
152	0x3d2cd067	0.042190935
153	0x3d258880	0.04041338
154	0xbed5175a	-0.41619378
155	0xbebfd588	-0.374676
156	0x3efa2fb1	0.4886451
157	0x3cea99be	0.028637763
158	0xbcf4c07b	-0.029876938
159	0x3d56bda4	0.05242695
160	0xbebf5fe2	-0.3737784
161	0xbe8a7d20	-0.27048588
162	0xbe0aa400	-0.13539124
163	0x3e07ead7	0.13273178
164	0x3d2cfe7e	0.04223489
165	0x3a43a7a2	0.0007463639
166	0xbda3ad10	-0.079919934
167	0xbdca6b80	-0.09883785
168	0xbe180104	-0.14844137
169	0xbe98df1e	-0.29857725
170	0xbeb7a74b	-0.35869822
171	0xbecacee2	-0.39610964
172	0x3f4550ed	0.7707661
173	0x3f648e97	0.89280075
174	0x3f19a761	0.60021025
175	0xbf136164	-0.5757048
176	0xbf2616dd	-0.64878637
177	0xbf0962ff	-0.5366668
178	0xbd3ab562	-0.045583136
179	0x3e2af8a2	0.16696408
180	0xbe85836b	-0.26076826
181	0x3f969de6	1.1766937
182	0x3e363b86	0.17796144
183	0x3e2f0abc	0.17093939
184	0xbe31e9e6	-0.17374381
185	0x3e99a0d8	0.30005527
186	0x3f175399	0.59111935
187	0xbe6fff0d	-0.23437138
188	0x3d03b651	0.032156292
189	0x3e3be2d3	0.18348245
190	0x3f27fb3a	0.65617716
191	0x3d9b99d0	0.07597697
192	0x3da6fa36	0.08153193
193	0x3e67c052	0.22631958
194	0x3eb9d6e4	0.3629676
195	0x3e8115f9	0.25212076
196	0x3e8b4a67	0.27205202
197	0x3eb1fd30	0.3476348
198	0x3f36670b	0.7125098
199	0x3f27cbff	0.6554565
200	0x3f4f9fd5	0.8110326
201	0x3e1f944f	0.15583919
202	0x3ed990ae	0.42493194
203	0x3e6726a0	0.22573328
204	0x3e5120d2	0.20422676
205	0x3d43aa1e	0.04776966
206	0x3e90261d	0.28154078
207	0xbd8185d7	-0.06324356
208	0xbdc73423	-0.09726741
209	0xbdac5d6b	-0.084162556
210	0xbd90ed2c	-0.07076487
211	0x3ecc9f38	0.39965224
212	0x3e8659dc	0.26240432
213	0xbd81fb83	-0.063468
214	0xbda326d5	-0.07966391
215	0xbdbd977c	-0.09257409
216	0xbdcf6745	-0.10127119
217	0x3ea942c6	0.33058757
218	0x3e82a8f7	0.25519535
219	0xbd20b5d1	-0.039235894
220	0xbd6fa6c2	-0.058508642
221	0xbd41496c	-0.04718916
222	0xbd4b5724	-0.04964365
223	0xbec6af87	-0.38805792
224	0xbec24b47	-0.37948057
225	0xbf63c7d4	-0.8897679
226	0xbf509051	-0.8147021
227	0xbde4cd54	-0.11171976
228	0xbf5e90b5	-0.86939555
229	0xbcc58c4f	-0.024114756
230	0xbea78509	-0.32718685
231	0xbf7c5a87	-0.98575634
232	0xbf731d36	-0.9496645
233	0xbddbd83e	-0.10734604
234	0xbf774df3	-0.96603316
235	0x3ec1c001	0.378418
236	0x3e208ed2	0.15679482
237	0x3fbbc915	1.467074
238	0x3fe4fb53	1.7889198
239	0x3e9a69f7	0.3015897
240	0x3fb127e9	1.3840305
241	0x3e548bbd	0.20756431
242	0x3f2014b8	0.62531614
243	0x3f0db2ef	0.55351156
244	0x3cfa87a3	0.030582255
245	0xbd1260b3	-0.03573675
246	0x3d36cbf7	0.04462811
247	0x3de29f03	0.11065485
248	0x3eb0dfb1	0.34545663
249	0x3f0de2d8	0.5542426
250	0x3d556233	0.052095603
251	0xbcd2f62c	-0.02575215
252	0x3d863751	0.065535195
253	0x3d8e0026	0.06933622
254	0x3ee4a01a	0.44653398
255	0xbd823c96	-0.06359212

conv2.lin_l.weight f4 [48, 48]
0	0x3e3e8a57	0.1860746
1	0xbe9c5853	-0.30536136
2	0xbd1eb35d	-0.038745273
3	0xba0a858d	-0.0005284183
4	0xbcbad3e1	-0.02280611
5	0x3d35c197	0.044374075
6	0xbaa95560	-0.001291912
7	0x3de7d82e	0.1132053
8	0xbce13492	-0.027490888
9	0xbe0308db	-0.12796347
10	0xbe3396c7	-0.17537986
11	0x3e0a5511	0.13509013
12	0xbe483d9a	-0.19554749
13	0xbe5b11ab	-0.21393459
14	0xbee6ad38	-0.4505403
15	0xbe6320e9	-0.22180523
16	0x3e3802ce	0.1796982
17	0xbdbdb1c4	-0.09262422
18	0xbc9e4120	-0.019318163
19	0x3d403e7d	0.046934593
20	0xbeaabab0	-0.33345556
21	0xbe04f924	-0.12985665
22	0x3d7e410b	0.06207375
23	0x3defa7f5	0.11701957
24	0xbdbc488a	-0.09193523
25	0x3e287b3c	0.1645326
26	0xbe0c277d	-0.13686939
27	0xbdc610b4	-0.096711546
28	0x3dd35354	0.10318628
29	0x3e36c206	0.17847452
30	0xbe2f6918	-0.17129934
31	0xbc3951ee	-0.0113110375
32	0xbcfa8b19	-0.030583905
33	0xbd2aa025	-0.041656632
34	0xbec23d37	-0.37937328
35	0xbdaede86	-0.08538537
36	0x3d15860f	0.0365048
37	0x3c6bf867	0.014402485
38	0xbe019b9e	-0.1265702
39	0xbe65b3f4	-0.22431928
40	0x3e4c924e	0.19977686
41	0xbe0d61c4	-0.13806826
42	0xbdfbb7d9	-0.122909255
43	0x3d8ac486	0.06775765
44	0x3d395f42	0.04525686
45	0xbe850b91	-0.25985387
46	0xbd623387	-0.05522492
47	0xbe425537	-0.1897782
48	0xbc39a73d	-0.011331377
49	0xbaacf2d2	-0.0013194925
50	0xbbaddc7b	-0.0053058243
51	0xbbd2b1a9	-0.00642987
52	0xbc462fd1	-0.012096361
53	0xbc7cf2f8	-0.015438788
54	0xbb071c27	-0.0020616145
55	0xbcc76c47	-0.024343623
56	0xbb06aa72	-0.002054837
57	0xba6e9a57	-0.0009101978
58	0xbbe59917	-0.007006775
59	0xbaa985c5	-0.0012933543
60	0xb8d2ed8d	-0.000100578276
61	0xba0a9629	-0.0005286658
62	0xb9931cac	-0.00028059387
63	0xb989283c	-0.00026160653
64	0xbbe26577	-0.006909068
65	0xbb77175e	-0.0037703137
66	0xbc31d2ed	-0.010853511
67	0xbb79c88e	-0.0038113925
68	0xbc4d1a86	-0.012518531
69	0xbc6d9f8c	-0.014503371
70	0xb9291629	-0.00016125351
71	0x3847c652	4.7629997e-05
72	0xb9b4cd76	-0.00034485356
73	0xbc1a5d75	-0.009421696
74	0xb7f25758	-2.888932e-05
75	0xbba5d7d4	-0.005061129
76	0xba00f5ca	-0.0004919438
77	0xbc8fc6ed	-0.01755091
78	0xbbc0af3e	-0.0058802655
79	0xbc8acf50	-0.016944557
80	0xbc4a21f2	-0.012337195
81	0xbce19485	-0.02753664
82	0xbabcd88f	-0.0014407801
83	0xb92e9b4d	-0.00016651787
84	0xbb837df6	-0.0040128184
85	0xba1a4c81	-0.0005886034
86	0xbc9c374b	-0.019069334
87	0xbc575802	-0.013143541
88	0xb5fbff2d	-1.8775223e-06
89	0xbb65eae9	-0.0035082644
90	0xbb8234c0	-0.0039735734
91	0xbc103702	-0.008802177
92	0xbcc5f40b	-0.02416422
93	0xbab8a725	-0.0014087899
94	0xbd2cf67b	-0.04222725
95	0xbad4dfdf	-0.0016241035
96	0xa788d38c	-3.7976942e-15
97	0xa57de63c	-2.2022258e-16
98	0xa62e9cd8	-6.058094e-16
99	0x2c2c4adc	2.4484225e-12
100	0xb5e6c26d	-1.7192921e-06
101	0xb4611469	-2.0962183e-07
102	0xa59e7e26	-2.7494112e-16
103	0xb53bd293	-6.9969354e-07
104	0x25b9a20b	3.220219e-16
105	0x2c66515e	3.2730134e-12
106	0xa6228e14	-5.639759e-16
107	0xa6a358b4	-1.133444e-15
108	0x24fb5df2	1.0901305e-16
109	0xa5374f84	-1.5899661e-16
110	0xa698b0cb	-1.0595039e-15
111	0xa910f5f0	-3.218774e-14
112	0xb1a57c6c	-4.816277e-09
113	0xaca9296c	-4.8078676e-12
114	0xb54f561e	-7.7238826e-07
115	0x2b9ae1f5	1.1005074e-12
116	0xb8f9393d	-0.00011883907
117	0x2b9948b7	1.0891486e-12
118	0xa6edf749	-1.6512205e-15
119	0xb06d8b37	-8.6417934e-10
120	0x2ac5a893	3.5111202e-13
121	0xa9e247fc	-1.00489034e-13
122	0xa709f932	-1.9147658e-15
123	0xab38f09c	-6.5703844e-13
124	0x284c33d2	1.1335512e-14
125	0x2d8c01a5	1.5916888e-11
126	0x2ebf2a96	8.693239e-11
127	0xb2a0b784	-1.8709905e-08
128	0x2bcae4f1	1.4416507e-12
129	0xb1cd190b	-5.9691323e-09
130	0xac6a21b7	-3.3272116e-12
131	0xa5c80ff1	-3.4705272e-16
132	0xa5e1c927	-3.9167584e-16
133	0x270db4dd	1.9665727e-15
134	0xb684429d	-3.9416614e-06
135	0xb1834c22	-3.821257e-09
136	0xa2dd3430	-5.9957426e-18
137	0xb70d7680	-8.431845e-06
138	0xad5da8c9	-1.2599873e-11
139	0xb612b334	-2.1860005e-06
140	0xb6603b59	-3.3413146e-06
141	0xa71bf0cc	-2.1641107e-15
142	0xb524bd78	-6.1370474e-07
143	0x26ba28f3	1.2917442e-15
144	0xbdaa44e3	-0.0831392
145	0xbe99d4da	-0.30045205
146	0xbe7d1601	-0.24715425
147	0xbc20198b	-0.009771715
148	0xbda564b7	-0.080758505
149	0xbe73492f	-0.23758386
150	0xbdc98847	-0.09840446
151	0xbdc7a288	-0.09747797
152	0xbe07f062	-0.13275293
153	0xbeb11d22	-0.3459254
154	0xbdfa3bda	-0.12218447
155	0xbd315d0a	-0.04330162
156	0xbdfd0b94	-0.12355724
157	0xbde40a6a	-0.11134799
158	0xbdc15597	-0.09440153
159	0xbe04c052	-0.1296399
160	0xbd98a4a7	-0.0745328
161	0xbd04892f	-0.03235739
162	0xbe30662b	-0.17226474
163	0xbdf0c710	-0.11756718
164	0xbdf5da22	-0.12004496
165	0xbe1ba49d	-0.15199514
166	0xbe2dd5e2	-0.16976121
167	0xbe520e95	-0.20513375
168	0x3bd86bbb	0.0066046393
169	0xbccf1f48	-0.02528347
170	0xbd1f06f3	-0.038824987
171	0xbccf1f1f	-0.025283394
172	0xbdaac274	-0.0833787
173	0xbd963921	-0.07335115
174	0xbdf7dfc2	-0.12103225
175	0xbdba3fa7	-0.09094172
176	0xbd677a89	-0.056513343
177	0xbe0d3f08	-0.13793576
178	0xbebdda05	-0.37080398
179	0xbe1ebc6c	-0.15501565
180	0xbd35cc4c	-0.044384286
181	0xbeacb439	-0.3373125
182	0xbde7dd54	-0.11321512
183	0xbdf8050a	-0.12110336
184	0xbdf73741	-0.12071086
185	0xbe571258	-0.21003091
186	0xbe6d0542	-0.23146537
187	0xbb9665be	-0.0045897653
188	0xbd361ac9	-0.044459138
189	0xbe0bced1	-0.13653113
190	0xbcb36e5a	-0.021903206
191	0xbe9444bf	-0.289587
192	0xb9390a78	-0.00017646875
193	0xb6c9867c	-6.005923e-06
194	0xb2512f76	-1.21761925e-08
195	0xbb04bcc1	-0.0020254108
196	0xbc50555d	-0.012715665
197	0xbb1afd04	-0.0023649344
198	0xb5c0c6d4	-1.4362981e-06
199	0xbbd05e80	-0.0063589215
200	0xb60b53ae	-2.0761322e-06
201	0xb90056a7	-0.00012239312
202	0xb73ee73a	-1.1378719e-05
203	0xb4434908	-1.8187359e-07
204	0xb1d81581	-6.288872e-09
205	0xb6bb9f0b	-5.5915493e-06
206	0xb4a44807	-3.0599787e-07
207	0xb4b59bd8	-3.3827268e-07
208	0xbbaaf212	-0.0052168453
209	0xba380848	-0.0007020277
210	0xb9eeb2df	-0.00045528167
211	0xb7bdda4b	-2.2632206e-05
212	0xbbeb7628	-0.007185716
213	0xb9fe91e1	-0.00048555344
214	0xb95b287d	-0.0002090055
215	0xba21ff1f	-0.00061796786
216	0xb80fb1a1	-3.4259287e-05
217	0xb81721c6	-3.603266e-05
218	0xb80632f8	-3.1995558e-05
219	0xba884b63	-0.0010398444
220	0xb5d57a83	-1.5905392e-06
221	0xbb4d9827	-0.0031371207
222	0xba0c869c	-0.00053606345
223	0xba8ae2da	-0.0010596171
224	0xba9bcbd0	-0.0011886302
225	0xbc2aa80f	-0.010416045
226	0xb94dfa12	-0.00019643482
227	0xb4ae1866	-3.2427778e-07
228	0xb4ff96b2	-4.7607097e-07
229	0xb7d705b9	-2.5632662e-05
230	0xbb9ad214	-0.0047247503
231	0xbb330cfb	-0.002732097
232	0xaba5ac53	-1.1771785e-12
233	0xbc134b5a	-0.008990133
234	0xb7e473b9	-2.7233606e-05
235	0xbbd2621d	-0.0064203874
236	0xbb4d4697	-0.0031322592
237	0xb6f02791	-7.1571635e-06
238	0xbb4afb0c	-0.003097239
239	0xb8272dcb	-3.985855e-05
240	0xa5b9d522	-3.223681e-16
241	0x2284b90f	3.597461e-18
242	0xa3e7fdf3	-2.5152622e-17
243	0xa7ea845a	-6.5091543e-15
244	0xad0e4d62	-8.088948e-12
245	0xaa5fac48	-1.9866151e-13
246	0xa4d44cc9	-9.2070423e-17
247	0x2c30b20a	2.5109936e-12
248	0xa589b708	-2.3889738e-16
249	0xa6c09245	-1.3362323e-15
250	0xa475e301	-5.3318186e-17
251	0xa539f0ed	-1.6127821e-16
252	0x2347f9cd	1.0840709e-17
253	0x2564f043	1.9857251e-16
254	0xa468ca7c	-5.0478492e-17
255	0x230c0d4a	7.592229e-18

conv2.lin_l.bias f4 [48]
0	0x3f7e11e9	0.9924608
1	0xbc606937	-0.01369696
2	0xbb3127f3	-0.0027031868
3	0xbe7d639c	-0.24745029
4	0xbd86dc68	-0.06585008
5	0xba243514	-0.0006264013
6	0xbea51ad3	-0.32247028
7	0xbdcf5392	-0.10123362
8	0xbd209a4a	-0.03920964
9	0xb9d4f8a8	-0.00040621054
10	0xbd007f6e	-0.031371526
11	0xbb1336c8	-0.0022463072
12	0xbd3ba21d	-0.0458089
13	0xbc975b5b	-0.018476179
14	0xbf295007	-0.6613774
15	0xbc23c519	-0.009995722
16	0xbf6f9374	-0.9358437
17	0xbd049316	-0.032366835
18	0xbf03e455	-0.5152028
19	0xbe96f8da	-0.29486734
20	0xbe66965b	-0.22518294
21	0xbeaa2866	-0.33233947
22	0xbd38124e	-0.04493933
23	0xbec6645c	-0.38748443
24	0xbef9fd96	-0.48826283
25	0xb800056d	-3.052263e-05
26	0xbe145364	-0.14484936
27	0x3f614e66	0.8801025
28	0x40153a13	2.3316696
29	0xbed9a222	-0.4250651
30	0xbcc1fdf5	-0.023680666
31	0x3f905f89	1.1279155
32	0xb7efdc72	-2.8593673e-05
33	0xbedc7b3d	-0.43062773
34	0x40487ecd	3.1327393
35	0xba60a443	-0.0008569399
36	0xbe182596	-0.14858088
37	0xbe3be454	-0.18348819
38	0xbf04008c	-0.51563334
39	0xbc9b70c4	-0.01897467
40	0xbc847766	-0.016170215
41	0xbdbb107e	-0.09134005
42	0xbea1f4ee	-0.3163218
43	0xbe270c57	-0.16313301
44	0xbf0866b1	-0.53281695
45	0xbbc7e4db	-0.0061002797
46	0xbf0fa2d2	-0.5610782
47	0xbdc4e4b4	-0.09613934

conv2.lin_r.weight f4 [48, 48]
0	0xbdb3b6df	-0.08775114
1	0xbe9d52cd	-0.30727234
2	0xbe8d90b2	-0.27649456
3	0xbe224125	-0.15845163
4	0x3cc5ddc6	0.024153601
5	0xbeb51b68	-0.35372472
6	0x3cbd6794	0.023120679
7	0xbe2882d7	-0.16456161
8	0xbe04cdbf	-0.12969111
9	0xbe2e24ed	-0.17006274
10	0xbd4a559c	-0.04939805
11	0xbd530310	-0.051516593
12	0xbe7cadab	-0.24675624
13	0xbe5cb294	-0.21552497
14	0xbd7bec8a	-0.061504878
15	0xbe6e0450	-0.23243833
16	0xbe649a7c	-0.22324556
17	0x3cbd75e3	0.023127502
18	0xbec288c9	-0.37994984
19	0xbdaf5199	-0.085604854
20	0xbdef32ce	-0.11679612
21	0xbe2280d8	-0.15869462
22	0x3c30d5d2	0.010793166
23	0xbe5bb488	-0.21455586
24	0xbe4b3fd6	-0.1984857
25	0xbc504ce6	-0.0127136465
26	0xbeb64623	-0.35600385
27	0x3c4fc2ab	0.01268069
28	0xbe09a152	-0.13440445
29	0xbea3d866	-0.32001036
30	0xbc8934b3	-0.016748762
31	0xbedd0c15	-0.4317328
32	0xbe87dca4	-0.26535523
33	0xbe0bb2ae	-0.1364238
34	0xbef34877	-0.47516224
35	0xbe283661	-0.16426994
36	0x3f199a3e	0.6000098
37	0xbcda3643	-0.026637202
38	0xbe574e0c	-0.21025866
39	0xbdc3a7ab	-0.095534645
40	0xbe424d3f	-0.1897478
41	0xbece962b	-0.40348944
42	0xbdd9b65b	-0.10630485
43	0xbea6b8c9	-0.32562855
44	0xbea1d107	-0.31604788
45	0xbe6e7d44	-0.23289973
46	0xbe30841f	-0.172379
47	0xbe84a7e5	-0.25909343
48	0xbb3eec9a	-0.0029132725
49	0xbd322591	-0.043492857
50	0xbc81ccba	-0.015844692
51	0xbd8b0ca4	-0.067895204
52	0xbcba13e6	-0.022714566
53	0xbccf22d4	-0.025285162
54	0xbbffbb0b	-0.0078042797
55	0xbc8a160c	-0.016856216
56	0xbc00b145	-0.007854764
57	0xbc4a633f	-0.012352764
58	0xb9f8d9e8	-0.000474646
59	0xbcffeb99	-0.031240271
60	0xbb614cd7	-0.0034378076
61	0xbd092311	-0.033480708
62	0xbcd79191	-0.026314529
63	0xbd5b8169	-0.053590212
64	0xbc5b6353	-0.01339038
65	0xbd17d827	-0.037071373
66	0xba928b25	-0.0011180384
67	0xbcddf0d1	-0.02709237
68	0xbd37711f	-0.044785615
69	0xbd091992	-0.03347165
70	0xbda275d8	-0.07932633
71	0xbd0e70fd	-0.034775723
72	0xbd0651cb	-0.032792848
73	0xbc0cb478	-0.008587949
74	0xbb6c01f7	-0.0036011913
75	0xbb8fb432	-0.0043854946
76	0xbbf9aaed	-0.007619253
77	0xbbd9ac39	-0.006642845
78	0xbc1eeb56	-0.009699663
79	0xbbe36a0d	-0.0069401325
80	0xbcc5ffd5	-0.024169842
81	0xbcc252cd	-0.023721123
82	0xbce8e526	-0.028429579
83	0xbc500758	-0.012697063
84	0xbcddd31d	-0.027078206
85	0xbd055a24	-0.032556668
86	0xbbdb831d	-0.0066989795
87	0xbb4b534b	-0.0031024988
88	0xbc082234	-0.008308936
89	0xbca5e0ab	-0.020248732
90	0xbc958f10	-0.018256694
91	0xbd1ab46b	-0.037769716
92	0xbc55fc6b	-0.013060669
93	0xbd00d2b0	-0.031450927
94	0xbb5747d8	-0.0032849219
95	0xbc2071f9	-0.009792798
96	0xb6725dc2	-3.6115384e-06
97	0xb3122443	-3.4026254e-08
98	0xa6d3972e	-1.4682043e-15
99	0xb7f6aa55	-2.9404802e-05
100	0xab98ce57	-1.085752e-12
101	0xb30dbc78	-3.3000532e-08
102	0x294f426b	4.602084e-14
103	0xb36372f0	-5.295709e-08
104	0x2737b5b0	2.5494845e-15
105	0xac96d33e	-4.286709e-12
106	0xaecac81b	-9.2214424e-11
107	0xb48bf443	-2.606849e-07
108	0xad3a1f03	-1.0579762e-11
109	0xb90cc1ed	-0.00013423683
110	0xb7084a02	-8.123463e-06
111	0xb8575b85	-5.134523e-05
112	0xb4485d9c	-1.8660506e-07
113	0xb588212e	-1.0142446e-06
114	0xb14939a0	-2.9282106e-09
115	0xb77d3421	-1.5092112e-05
116	0xb5a02464	-1.193152e-06
117	0xb3aa319a	-7.9252644e-08
118	0xb582276a	-9.697226e-07
119	0xacf2b119	-6.8977155e-12
120	0xb14d3525	-2.9861635e-09
121	0xa9eb2839	-1.0443074e-13
122	0xa845a017	-1.0970411e-14
123	0x2970d19b	5.347251e-14
124	0xb7985ed4	-1.816397e-05
125	0xb409c068	-1.2829116e-07
126	0x2f248527	1.4963018e-10
127	0x2f66e858	2.1000923e-10
128	0xb46049b1	-2.0888434e-07
129	0xb42e1bf7	-1.6215186e-07
130	0xb5bda18a	-1.4128611e-06
131	0xb59f54e6	-1.1871132e-06
132	0xb69db7a3	-4.7003427e-06
133	0xb262deb5	-1.3205569e-08
134	0xb3d0116f	-9.688926e-08
135	0x2b3079af	6.269663e-13
136	0x27dd4762	6.1417216e-15
137	0xaba49b98	-1.1696087e-12
138	0xb91ff8ab	-0.00015256058
139	0xb72a2925	-1.0142369e-05
140	0xb7e94326	-2.7807033e-05
141	0xb6cba3be	-6.0689335e-06
142	0x2e2d1d14	3.9361472e-11
143	0xb788c971	-1.6306267e-05
144	0xbd5f4deb	-0.054517668
145	0x3c8921d6	0.016739767
146	0xbda41e65	-0.0801361
147	0x3ceca489	0.02888705
148	0x3d9538f1	0.07286251
149	0xbe26eccf	-0.16301273
150	0xbd80caae	-0.06288658
151	0x3bd43d67	0.0064770463
152	0x3beffd1d	0.0073238746
153	0xbd701456	-0.058613144
154	0x3d051f59	0.0325006
155	0xbea191b5	-0.31556478
156	0xbe03f7ac	-0.12887448
157	0xbbaaa217	-0.005207311
158	0xbe02889d	-0.12747426
159	0xbe1eddd7	-0.15514313
160	0xbdfec387	-0.12439638
161	0xbc32c39c	-0.010910895
162	0xbe014a0d	-0.12625904
163	0xbd6f1f28	-0.058379322
164	0x3cc6df8d	0.02427652
165	0xbe272d2c	-0.16325825
166	0xbcc7c668	-0.0243866
167	0x3d9ffc17	0.07811754
168	0xbc0f6acd	-0.008753491
169	0x3bbafd57	0.00570647
170	0xbcae8b47	-0.021306647
171	0xbe1cb172	-0.15302065
172	0xbd486568	-0.048924834
173	0xbd83ffca	-0.06445272
174	0xbd538a68	-0.051645666
175	0xbe33c0ca	-0.17554012
176	0x3b24bb8e	0.0025136205
177	0xbd6e7732	-0.058219142
178	0xbe272e5f	-0.16326283
179	0xbf163ee7	-0.5868973
180	0xbe4f0b08	-0.20219052
181	0xbcf6c979	-0.030125367
182	0xbc0f7aab	-0.008757274
183	0xbe204672	-0.15651873
184	0xbf0906f9	-0.53526264
185	0xbeb1370a	-0.34612304
186	0xbbf0d1f2	-0.007349246
187	0xbe9f3131	-0.31092218
188	0xbd01f7d1	-0.031730477
189	0xbd9680dd	-0.073487975
190	0xbd3331c4	-0.043748632
191	0xbe7c8d56	-0.2466329
192	0xbaea1443	-0.0017858822
193	0xbbe3d008	-0.0069522895
194	0xb7507ad8	-1.2426368e-05
195	0xbc6787cc	-0.014131498
196	0xbad966c0	-0.0016586408
197	0xbbdaf344	-0.0066818316
198	0xb8858868	-6.367342e-05
199	0xbc3626ba	-0.011117632
200	0xb8b42bae	-8.591205e-05
201	0xbb9dfbf6	-0.004821296
202	0xb9198261	-0.00014639787
203	0xbbb6b808	-0.0055761375
204	0xb9f8442f	-0.00047353047
205	0xbc90243b	-0.017595401
206	0xb99c28d9	-0.00029785073
207	0xbb6cc3bf	-0.0036127416
208	0xbab5eff3	-0.0013880715
209	0xbc64db41	-0.01396829
210	0xba828423	-0.0009957593
211	0xbc320267	-0.010864831
212	0xbbe6c73b	-0.007042793
213	0xbb167328	-0.0022956822
214	0xbcdf6894	-0.027271546
215	0xbb843149	-0.0040341956
216	0xbc0426d9	-0.008065903
217	0xbc4f5466	-0.0126543995
218	0xb93bfbd3	-0.00017927522
219	0xba42ff1c	-0.0007438527
220	0xbbd67561	-0.0065447544
221	0xbaa3ab62	-0.0012486989
222	0xbc564f15	-0.013080378
223	0xbad83a33	-0.0016496837
224	0xbb2d217a	-0.0026417659
225	0xbc22db41	-0.0099399695
226	0xbbf60ad9	-0.0075086174
227	0xbc046f76	-0.008083215
228	0xbc390b64	-0.01129422
229	0xbb4755ba	-0.0030416087
230	0xb95c5d76	-0.00021015652
231	0xbb9d90bc	-0.0048085134
232	0xba0642a2	-0.00051216234
233	0xbbaf8720	-0.0053566843
234	0xba6446d6	-0.0008708065
235	0xbb99467d	-0.0046775923
236	0xbc412f4d	-0.011791063
237	0xbbd33d92	-0.0064465487
238	0xb987bf33	-0.0002589166
239	0xbb096d15	-0.002096956
240	0xa59a769f	-2.6795122e-16
241	0x291550aa	3.315461e-14
242	0x250de121	1.2306077e-16
243	0xb5412721	-7.195504e-07
244	0x27858df7	3.7068834e-15
245	0xaba2195d	-1.1517832e-12
246	0x25c22f68	3.368576e-16
247	0x2b4c51fa	7.2589124e-13
248	0xa38d0870	-1.5290824e-17
249	0x2b808a47	9.133327e-13
250	0xa6daf2a5	-1.5192558e-15
251	0xacfa3569	-7.111357e-12
252	0x28171081	8.3857626e-15
253	0xb438267e	-1.7150339e-07
254	0xb01a01ca	-5.6027416e-10
255	0xb5857e90	-9.946107e-07

lin.weight f4 [2, 48]
0	0xbd46954d	-0.048482228
1	0x3d38ce3b	0.04511855
2	0x3e15f5fa	0.14644614
3	0xbe4e7c35	-0.20164569
4	0x3e115fa9	0.14196648
5	0x3df49ae9	0.11943609
6	0x3e06a212	0.13147762
7	0x3dc85ce8	0.097833455
8	0x3cd0ef09	0.025504606
9	0x3bf11616	0.007357369
10	0x3c43238c	0.0119103305
11	0x3d7b381a	0.0613328
12	0x3d436d55	0.04771169
13	0x3d2bf8c0	0.041985273
14	0x3eac14e9	0.33609703
15	0x3e4cf619	0.20015754
16	0x3e8b24f4	0.2717663
17	0x3cbd46aa	0.023104984
18	0x3e7dc1b6	0.24780926
19	0xbcd61f99	-0.026138114
20	0x3ded5492	0.11588396
21	0x3f0282fe	0.5098113
22	0x3df0f12b	0.11764749
23	0x3dbd82db	0.09253474
24	0xbd843138	-0.064547
25	0x3c91dfb0	0.017806858
26	0x3c51341a	0.01276877
27	0xbe3503c0	-0.17677212
28	0xbe77cf15	-0.2420009
29	0x3eda3505	0.42618576
30	0x3ce0e7d6	0.027454298
31	0xbe6008df	-0.21878384
32	0x3b893394	0.004187057
33	0x3ee0ef73	0.43932685
34	0xbe826df9	-0.25474527
35	0x3cf51e65	0.02992172
36	0xbdc01ada	-0.093801215
37	0xbbc33246	-0.005956921
38	0x3e562d12	0.2091563
39	0x3db35eec	0.08758339
40	0x3cd0a9fe	0.025471684
41	0xbddf7c69	-0.10912401
42	0x3e064c03	0.13114934
43	0x3dae666e	0.08515631
44	0x3d023823	0.031791817
45	0x3d4ea84c	0.05045347
46	0x3dd36b3a	0.10323186
47	0x3b930163	0.0044862493
48	0x3e6af9fc	0.22946924
49	0xbd221e68	-0.03957978
50	0xbd14e0b9	-0.036347125
51	0x3e00d7e7	0.1258236
52	0xbd136962	-0.035989173
53	0xbe01c2c4	-0.12671953
54	0xbd553d95	-0.052060682
55	0x3d8ed9ad	0.06975112
56	0xbdb4791a	-0.08812161
57	0xbe036b3f	-0.1283388
58	0xbd65029b	-0.055910688
59	0xbe2233d7	-0.15840088
60	0xbd3df255	-0.046373684
61	0xbe24379a	-0.16036835
62	0xbea3faa9	-0.32027176
63	0xbc2d43c6	-0.0105752405
64	0xbef279b5	-0.4735848
65	0xbd5ef1af	-0.054429706
66	0xbec0b31c	-0.3763665
67	0xbd74ad4a	-0.059735574
68	0xbd294017	-0.041320886
69	0xbecfa139	-0.4055269
70	0x3c9d5c5e	0.019209083
71	0x3d6c7a40	0.057733774
72	0xbdc95b7f	-0.098319046
73	0xbe568e26	-0.20952663
74	0xbd3ef9c1	-0.046624903
75	0x3e58bf9e	0.21166846
76	0x3d9e8298	0.077397525
77	0xbf099eff	-0.53758234
78	0xbc718273	-0.014740574
79	0x3d0f205d	0.034942973
80	0xbca25806	-0.019817363
81	0xbe3c2083	-0.18371777
82	0x3e430440	0.1904459
83	0xbddaed3c	-0.1068978
84	0xbe051c19	-0.12999
85	0xbd49dc5f	-0.049282428
86	0xbe696d37	-0.22795568
87	0xbc7741cb	-0.01509137
88	0xbd93d9e0	-0.07219291
89	0x3da5bbcd	0.08092461
90	0xbd2b7499	-0.041859243
91	0xbc10db3b	-0.008841331
92	0xbcd47988	-0.025936857
93	0xbe103f1e	-0.14086577
94	0xbe92d6d7	-0.28679535
95	0xbd60d040	-0.054886103

lin.bias f4 [2]
0	0x3ecf1277	0.40443775
1	0xbe9d8315	-0.3076407
