DNDF Embeddings/dnf_best.pt (torch, 132063 bytes, 6 tensors)

leaf_probs f4 [10, 16, 2]
00000000: 7332 1fbd 9434 1f3d 64ca b7bd 0a68 b73d
00000010: 7202 abbd 2d51 a93d a2ce 42be 8e4e 423e
00000020: 219d 97bd c620 993d 00d7 0cbe 42f3 1f3e
00000030: b231 cbbd 97ea 213e 1c71 9cbe 5312 863e
00000040: 2eba ea3e 9349 05bf f3d4 b4bd 978c b6bd
00000050: bdea 36be 8412 873e def0 09be 0252 a43e
00000060: b366 25be 0537 e63d 2021 98be 55bf 8f3e
00000070: 912b 5ebe 3061 893e 792f c7be f1f3 8a3e
00000080: 578f 2dbe 0b63 363e c981 f4bd 1ae1 063e
00000090: 8ad5 1abe e7f3 a13e 4199 96bd ece3 783e
000000a0: 4576 493d c545 37be 9dc6 533e ca63 01bf
000000b0: 34fd cd3d bd0b 3fbe 448e c0bd adc6 18be
000000c0: 8080 10be dad2 063e 8ea5 87be 48e5 3b3e
000000d0: 54bb e9bd 6e69 203e a504 1abe 0e58 0d3e
000000e0: bef3 89be d9c0 273e 6c8f 6abe 535b 733e
000000f0: d98f 4cbd 5e4e 8d3e 7419 0dbe b31f de3c
00000100: b51d a3be 7da8 a33e 4f6a e2be 877f ea3e
00000110: 6aaa bdbe eb54 d03e e74e 17bf 2c6f 0d3f
00000120: f57a bb3e 59a3 9bbe d19b ff3c 4b63 8dbd
00000130: 8e10 c2be 2079 ce3e 8e53 09bf bd29 c43e
00000140: a912 05be c6b6 043e 79c0 50be 0029 973e
00000150: e389 93be 4ce0 9b3e 6d02 ebbe 246c d93e
00000160: 1150 95be 8328 933e 813e cabe 43ab c93e
00000170: ff51 01bf 5ddb d43e 2f05 f3be 5282 033f
00000180: 2b19 18be ebdb e43d 7d3c 04be 7107 573e
00000190: 4222 e7bd 132d b03d 5617 b0bd 7b1d db3d
000001a0: 212c b8bd f2b8 393d dbb9 c7bd 17bb 763b
000001b0: 8968 4cbe 5d6a d43d f2e6 11bc d5ea 3ebe
000001c0: c619 c5bd 86c1 4b3d e183 83bd 766f 083d
000001d0: 34f6 28be e1f2 873c b4fd be3d db13 27be
000001e0: 431f 953d 42e1 acbd bdc4 e53e 0514 00bf
000001f0: 2533 35be 6c5d a4bd 1c0a 003e 8bc6 51be
00000200: b7b0 b4bb da31 403d b3fa 16bd 1bd6 073e
00000210: 7011 22be 1311 d03d 47e3 6b3d 7c5f 303c
00000220: da00 ac3e 7918 bebe 0b71 0f3e 9f0d 88bc
00000230: 1aa0 4abe 172b d53d 7bc5 f83d 2cd4 6bbd
00000240: 20e3 4cbd 03f4 413d ef95 dabd 0757 cf3d
00000250: 1df9 05be b8da 033e d899 77bd 2e1a 323e
00000260: 1a10 bcbd b462 be3d 59bf ebbd 1fb9 cb3d
00000270: 42d9 9cbd e67e 2a3c 26af a3be 5b2d 2a3d
00000280: c304 7bbe 8665 253e 2168 c3bc e74c 393e
00000290: f14d b5bd 72a8 50be 10ee 063e b9a1 2c3b
000002a0: 6c61 0b3e c14f fcbd daee f13e 6d93 fdbe
000002b0: a306 b6bd c634 823b ff7c 473d 8865 9cbe
000002c0: fa03 16be 7bc5 113e 1d7b 4fbe 4258 873e
000002d0: afad 2fbe 4473 573e ad7e 37be 0fd0 823e
000002e0: ac1c 87be f585 903e 556a 91be 2404 2a3e
000002f0: ae4a 79be dd97 523e 5310 4ebe e416 c63d
00000300: 4ab1 3ebe 891e 423e 69c5 b9be 7ec1 533e
00000310: c6fb 20be 5ec9 b43e 2dfc f2be 1831 af3e
00000320: 1ed9 f43e e2c8 b8be 6534 49be d71e 023e
00000330: f652 1cbf 9792 823e 7692 b7be 42ad cf3e
00000340: a91c d2bd a426 d33d 7c35 82be f323 5d3e
00000350: 236a 78be 75ce 7a3e fd28 dcbe ed79 bb3e
00000360: a1f7 82be cee9 8a3e e9e0 cebe 7cd1 bd3e
00000370: 505d c1be 10bc d43e 8b24 f8be 653f ae3e
00000380: 7525 72bd 03de 7d3d 809c fdbd c5c7 043e
00000390: a9ff 0fbe be48 fc3d 3b8d 83be bc6e 043e
000003a0: dcd5 f5bd 0d2f fe3d 120d 5ebe e8af 313e
000003b0: 886f 87be 063f 523e 61bb 3ebe a307 793e
000003c0: 94d8 a7bc 4c48 6bbd f56b 053f 21d8 94be
000003d0: 7acc c0bd 386d 543e 6693 123e ae36 26be
000003e0: 5d7e 52be d280 b13d f425 023d 9291 b33d
000003f0: 4f08 a0bd b3b3 923d b92d 803d 1a53 b93d
-0.03886647 0.0388685 -0.0897415 0.08955391 -0.08350076 0.08267436 -0.19024137 0.18975279
-0.07403017 0.07476954 -0.13753891 0.15620139 -0.09921588 0.15812145 -0.30555046 0.26185855
0.4584517 -0.5206539 -0.08829679 -0.08913534 -0.17862983 0.26381314 -0.1347079 0.32093817
-0.16152458 0.11240963 -0.29712772 0.28075662 -0.21696307 0.2683196 -0.38903406 0.27139238
-0.16949211 0.1781122 -0.11938817 0.13171807 -0.15120521 0.31631395 -0.073534496 0.24305695
0.049185056 -0.17897709 0.20681234 -0.5054289 0.1005806 -0.18656822 -0.09402135 -0.14919539
-0.14111519 0.13166371 -0.26493496 0.18349183 -0.11412683 0.15665218 -0.15040834 0.13803121
-0.26943773 0.1638216 -0.22906274 0.23765306 -0.04994187 0.27598852 -0.13779241 0.027114725
-0.31858602 0.31964484 -0.44221732 0.4580042 -0.37044078 0.40689787 -0.5910477 0.5524776
0.36617246 -0.30398062 0.031202229 -0.06903704 -0.37903255 0.40326786 -0.5364312 0.38313094
-0.129954 0.12960348 -0.20385922 0.29523468 -0.28816137 0.30444562 -0.45900288 0.42465317
-0.29162648 0.28741845 -0.39500812 0.39388475 -0.5051574 0.4157361 -0.47464892 0.5137073
-0.14853351 0.111747585 -0.129137 0.20998932 -0.11285831 0.08602347 -0.08598201 0.10698982
-0.08992792 0.045342393 -0.09752246 0.0037648135 -0.19961752 0.1037185 -0.008905159 -0.18644269
-0.096240565 0.049745105 -0.06421638 0.033309422 -0.16500169 0.016595306 0.09325734 -0.16316168
0.07281353 -0.08441402 0.44876662 -0.5003055 -0.17695291 -0.08025631 0.12503856 -0.20485894
-0.00551423 0.046922542 -0.03686018 0.13265269 -0.15826964 0.10159507 0.057589795 0.010764953
0.335944 -0.37128046 0.14007966 -0.016608058 -0.19787636 0.10408609 0.121470414 -0.05757539
-0.05002129 0.04735185 -0.10673129 0.10124021 -0.1308331 0.12876403 -0.06044945 0.173928
-0.09182759 0.0929617 -0.11511106 0.099474184 -0.07658626 0.0104062315 -0.31969565 0.04154716
-0.24513535 0.1615201 -0.023853363 0.18095742 -0.08852757 -0.20376757 0.13176751 0.0026341511
0.13611382 -0.12319899 0.47252542 -0.4952654 -0.088879846 0.0039735762 0.04870319 -0.30546212
-0.14649954 0.14235489 -0.20261808 0.26434523 -0.17156099 0.21040064 -0.17919417 0.2554936
-0.26389062 0.282272 -0.28401437 0.16603142 -0.24344894 0.20565744 -0.20123415 0.09672335
-0.18622318 0.1895696 -0.36283424 0.2067928 -0.15721044 0.3530988 -0.4745802 0.34217143
0.47821897 -0.3609076 -0.19648893 0.12707077 -0.6106409 0.25502464 -0.35853928 0.40561873
-0.10259373 0.103101045 -0.2543143 0.21595745 -0.24259238 0.2449282 -0.43000022 0.3661646
-0.2557955 0.27131504 -0.40405968 0.37073886 -0.37766504 0.4154973 -0.4846538 0.3403274
-0.059117753 0.061979305 -0.12383366 0.12966831 -0.1406237 0.12318562 -0.25693688 0.12932867
-0.12003681 0.12411318 -0.21684673 0.17352259 -0.2645228 0.20531854 -0.18626167 0.2431932
-0.020489015 -0.057441995 0.52117854 -0.29071143 -0.09414001 0.20744789 0.1431404 -0.16231796
-0.20556016 0.08667149 0.031774476 0.08768 -0.07814085 0.07163181 0.06258721 0.090490535

leaf_mask f4 [16, 15]
00000000: 0000 803f 0000 803f 0000 0000 0000 803f
00000010: 0000 0000 0000 0000 0000 0000 0000 803f
00000020: 0000 0000 0000 0000 0000 0000 0000 0000
00000030: 0000 0000 0000 0000 0000 0000 0000 803f
00000040: 0000 803f 0000 0000 0000 803f 0000 0000
00000050: 0000 0000 0000 0000 0000 0000 0000 0000
00000060: 0000 0000 0000 0000 0000 0000 0000 0000
00000070: 0000 0000 0000 0000 0000 803f 0000 803f
00000080: 0000 0000 0000 0000 0000 0000 0000 0000
00000090: 0000 0000 0000 0000 0000 803f 0000 0000
000000a0: 0000 0000 0000 0000 0000 0000 0000 0000
000000b0: 0000 0000 0000 803f 0000 803f 0000 0000
000000c0: 0000 0000 0000 0000 0000 0000 0000 0000
000000d0: 0000 0000 0000 0000 0000 0000 0000 0000
000000e0: 0000 0000 0000 0000 0000 0000 0000 0000
000000f0: 0000 803f 0000 0000 0000 0000 0000 0000
00000100: 0000 803f 0000 0000 0000 0000 0000 0000
00000110: 0000 0000 0000 803f 0000 0000 0000 0000
00000120: 0000 0000 0000 0000 0000 0000 0000 803f
00000130: 0000 0000 0000 0000 0000 0000 0000 803f
00000140: 0000 0000 0000 0000 0000 0000 0000 0000
00000150: 0000 0000 0000 0000 0000 0000 0000 0000
00000160: 0000 0000 0000 0000 0000 803f 0000 0000
00000170: 0000 0000 0000 0000 0000 0000 0000 0000
00000180: 0000 0000 0000 0000 0000 0000 0000 0000
00000190: 0000 803f 0000 0000 0000 0000 0000 0000
000001a0: 0000 0000 0000 803f 0000 0000 0000 0000
000001b0: 0000 0000 0000 0000 0000 0000 0000 0000
000001c0: 0000 0000 0000 0000 0000 0000 0000 0000
000001d0: 0000 0000 0000 0000 0000 0000 0000 0000
000001e0: 0000 0000 0000 0000 0000 803f 0000 0000
000001f0: 0000 0000 0000 803f 0000 0000 0000 0000
00000200: 0000 0000 0000 0000 0000 0000 0000 803f
00000210: 0000 0000 0000 0000 0000 0000 0000 0000
00000220: 0000 0000 0000 803f 0000 0000 0000 0000
00000230: 0000 803f 0000 0000 0000 0000 0000 0000
00000240: 0000 0000 0000 0000 0000 0000 0000 0000
00000250: 0000 0000 0000 0000 0000 0000 0000 0000
00000260: 0000 803f 0000 0000 0000 0000 0000 0000
00000270: 0000 0000 0000 0000 0000 0000 0000 0000
00000280: 0000 0000 0000 0000 0000 803f 0000 0000
00000290: 0000 0000 0000 0000 0000 0000 0000 803f
000002a0: 0000 0000 0000 0000 0000 0000 0000 0000
000002b0: 0000 0000 0000 0000 0000 0000 0000 0000
000002c0: 0000 0000 0000 0000 0000 0000 0000 0000
000002d0: 0000 0000 0000 0000 0000 0000 0000 0000
000002e0: 0000 0000 0000 0000 0000 803f 0000 0000
000002f0: 0000 0000 0000 0000 0000 0000 0000 0000
00000300: 0000 0000 0000 803f 0000 0000 0000 0000
00000310: 0000 0000 0000 0000 0000 0000 0000 0000
00000320: 0000 0000 0000 803f 0000 0000 0000 0000
00000330: 0000 0000 0000 0000 0000 0000 0000 0000
00000340: 0000 0000 0000 0000 0000 0000 0000 0000
00000350: 0000 0000 0000 0000 0000 0000 0000 0000
00000360: 0000 0000 0000 0000 0000 0000 0000 0000
00000370: 0000 0000 0000 0000 0000 0000 0000 0000
00000380: 0000 803f 0000 0000 0000 0000 0000 0000
00000390: 0000 0000 0000 0000 0000 0000 0000 0000
000003a0: 0000 0000 0000 0000 0000 0000 0000 0000
000003b0: 0000 0000 0000 0000 0000 0000 0000 0000
1.0 1.0 0.0 1.0 0.0 0.0 0.0 1.0
0.0 0.0 0.0 0.0 0.0 0.0 0.0 1.0
1.0 0.0 1.0 0.0 0.0 0.0 0.0 0.0
0.0 0.0 0.0 0.0 0.0 0.0 1.0 1.0
0.0 0.0 0.0 0.0 0.0 0.0 1.0 0.0
0.0 0.0 0.0 0.0 0.0 1.0 1.0 0.0
0.0 0.0 0.0 0.0 0.0 0.0 0.0 0.0
0.0 0.0 0.0 0.0 1.0 0.0 0.0 0.0
1.0 0.0 0.0 0.0 0.0 1.0 0.0 0.0
0.0 0.0 0.0 1.0 0.0 0.0 0.0 1.0
0.0 0.0 0.0 0.0 0.0 0.0 0.0 0.0
0.0 0.0 1.0 0.0 0.0 0.0 0.0 0.0
0.0 0.0 0.0 0.0 1.0 0.0 0.0 0.0
0.0 1.0 0.0 0.0 0.0 0.0 0.0 0.0
0.0 0.0 0.0 0.0 0.0 0.0 0.0 0.0
0.0 0.0 1.0 0.0 0.0 1.0 0.0 0.0
0.0 0.0 0.0 1.0 0.0 0.0 0.0 0.0
0.0 1.0 0.0 0.0 1.0 0.0 0.0 0.0
0.0 0.0 0.0 0.0 0.0 0.0 0.0 0.0
1.0 0.0 0.0 0.0 0.0 0.0 0.0 0.0
0.0 0.0 1.0 0.0 0.0 0.0 0.0 1.0
0.0 0.0 0.0 0.0 0.0 0.0 0.0 0.0
0.0 0.0 0.0 0.0 0.0 0.0 0.0 0.0
0.0 0.0 1.0 0.0 0.0 0.0 0.0 0.0
0.0 1.0 0.0 0.0 0.0 0.0 0.0 0.0
0.0 1.0 0.0 0.0 0.0 0.0 0.0 0.0
0.0 0.0 0.0 0.0 0.0 0.0 0.0 0.0
0.0 0.0 0.0 0.0 0.0 0.0 0.0 0.0
1.0 0.0 0.0 0.0 0.0 0.0 0.0 0.0
0.0 0.0 0.0 0.0 0.0 0.0 0.0 0.0

router.0.weight f4 [128, 97]
00000000: b6cb 28bb 386a 843d 2ccd 9b3d 1cc4 463e
00000010: 12a6 ef3c ee36 0e3e f5f5 fb3d 03da e0bb
00000020: c92d 0e3d c674 403d 9890 8e3d 972f 4139
00000030: a6cc 443c ef8c dfbb c129 a43c f968 b83d
00000040: 26a7 543d 78b7 013d b413 103c cdaa 68bd
00000050: 879b 8dbd f5cd 203d 15d7 8b3c ca47 c03d
00000060: 9d66 153e 2a29 83bc 9102 21bd 38d2 033e
00000070: e662 903d c9e5 d73c 7c3e 153e b62e 10bd
00000080: 9a62 ebbc ad02 edbb 9e75 163d 9fb5 47bc
00000090: 581c a43d cfb8 403d 3b27 7abd b241 6a3d
000000a0: 75be 213e 4157 083d 1b2e 663d 8585 9cbd
000000b0: 8646 16be 072e 123e 3682 c43d 3996 043e
000000c0: 0df1 d93b 6b41 0bbd 2c0c 7cbc 7890 11bc
000000d0: e3a2 023e 9e15 443e 5b1e 323d daa7 18be
000000e0: dd74 753b 43cc a73c 051f 0b3e 0e9e 063d
000000f0: 65cb 0e3d a913 a63c c27d 4e3d e88b 4e3d
00000100: 4073 ee3d 5137 163e ebe2 9e3c 574e dabd
00000110: 146b e9bc 9ba4 1a3c 07f8 e33c c74e 2d3d
00000120: a1e4 78bd 0eec cb3c 10df 0f3e 74bb a93c
00000130: 92fb 9a3d c540 8b3d 66b2 443d d055 f4bd
00000140: 3b7c 92bd 2d1b 273e 4148 2b3d dd41 b23c
00000150: 00d0 e33c 55d7 e5bd 236d 83bb ee35 73bc
00000160: 5725 933d 657c 213c a493 b93d 3104 82ba
00000170: 49b1 923d add8 a92f b1ca a335 210e 7c3a
00000180: b899 9b38 6d2c 453d 4c0f 17bd 456a 693d
00000190: 4dd4 ea3d 3369 3f3e 940d 203e b0b1 e43d
000001a0: 1c14 60bc 0a9d d33d 715f ee3d 7b8d ec3d
000001b0: a4fe 9dbd 4cd0 2dbb 981e 883e 46c5 4bbd
000001c0: 2ff0 1dbc 1fd9 47bc eb48 2239 208a 41bd
000001d0: 1cba 7bbd 8cfc 4f3a 645b 8fbc 34d3 4b3d
000001e0: 9554 823d 0f53 a3bd 9151 f63d c049 e73d
000001f0: 30f5 5c3d ac39 babc a221 91bd 82d9 cfbc
00000200: 2c25 f63d c656 0b3e 25db 9abd 4d8a a4bb
00000210: 20f3 67bd f899 53bb ef06 78bd 3b8f c93d
00000220: e291 29be 0013 34be 1a20 783d c4ba 66be
00000230: 0c46 f03d 1951 d93d 2a3f f6bd 8733 5bbe
00000240: a694 a4bd bffb 1bbe e24b 583e 11da 0e3d
00000250: a346 c33d dab6 3f3e 1f83 1a3e bacb a23d
00000260: acf8 3e3e d8d4 e63d 3c13 843d cd90 033d
00000270: 84ef 6c3d df6d df3d 49e2 563e 93d4 623e
00000280: 2736 123d 63c0 fb3d e43d b13d 63a0 5dbc
00000290: d104 993d 3d7c 343e da16 7abd 93f2 55bd
000002a0: 2e14 36bd 0dba 1b3c 96e9 59bd 3ad9 153d
000002b0: 06fd a3bd 3ea2 3cbe 17a9 1abe acb1 21be
000002c0: 75fe 763e 63f6 d23d 9566 21bd 84d9 23be
000002d0: 4976 febd dd19 0cbe b006 003e c77e 8e3d
000002e0: 57c2 e9ba fa77 ef3c 7113 d63d 208c febc
000002f0: 8c66 44bc 0b3a efbc b77d 0a2e c91f 0138
00000300: 98e0 b83c 7114 bf3b 763f 453d 2838 c7bd
00000310: 9c99 89ba eb46 a03d dba4 9c3e 49df 1f3e
00000320: 0335 98bc 065b 373e 4441 4c3e a881 2a3e
00000330: bf95 403d 61a4 b7bd 5b3b 683d 71f1 c23e
00000340: 19c5 3bbd d61a 8b3d 3a0d 1c3e 547f 263d
00000350: b25a cb3d a58b c13d 18f8 64bc fd95 6cbc
00000360: b6fe 0cbe a71f fbbd 2a65 d6bd a0b3 84bd
00000370: ed4d 81bb b6cf f5bb fe4e dfbc e0af e3bd
00000380: 038d 59bd 0f74 ce3d a5ba ee3d 2863 c3bd
00000390: 5761 f9bd 5be4 bebd 0a08 dbbd 459e 6f3d
000003a0: 21f3 023e b551 36be a481 bbbd 10de e4bc
000003b0: c372 fbbd af8f 083e f490 81bc 8bde b4bd
000003c0: 6cd8 0ebe 2e43 dabd cbc1 0bbe cc58 ed3d
000003d0: 9d1b fd3d adc7 2d3e c42a 493e f3e8 0e3e
000003e0: 3b0d 9a3e 4d0f 233e ebf1 2b3e 32fd 053e
000003f0: f385 7dbd ba76 90bd a71a febd a415 363c
-0.0025756187 0.06465572 0.07607493 0.19410747 0.029253993 0.13888142 0.12302772 -0.0068619265
0.034711633 0.046986364 0.06961173 0.00018423643 0.012011683 -0.0068222205 0.020039441 0.09004397
0.051917218 0.03166911 0.00879376 -0.056803513 -0.0691443 0.039258916 0.017070333 0.09388693
0.14589925 -0.01601084 -0.03930909 0.12873161 0.070501134 0.026354687 0.14574617 -0.035200797
-0.02873354 -0.007232985 0.036733262 -0.012189298 0.08013219 0.047051247 -0.06107257 0.05719156
0.1579531 0.033286337 0.056196313 -0.07642654 -0.1467534 0.1427537 0.09595148 0.1294793
0.00665105 -0.033997934 -0.015383761 -0.008884542 0.12757449 0.19148871 0.04348598 -0.1490778
0.003745369 0.020483142 0.13586052 0.032865576 0.03486194 0.020273047 0.0504129 0.050426394
0.11643076 0.14669539 0.019395312 -0.106594734 -0.028493442 0.009438659 0.02782823 0.042311456
-0.060764913 0.024892833 0.14049935 0.020719267 0.075675145 0.06799463 0.048021697 -0.1193043
-0.07152601 0.1631896 0.041816954 0.021759922 0.027809143 -0.11222712 -0.004010813 -0.014844401
0.071848564 0.009856318 0.09061363 -0.0009919462 0.07162721 3.0894878e-10 1.2203437e-06 0.00096151425
7.419608e-05 0.04813807 -0.036879823 0.056986112 0.114662744 0.18692474 0.1563018 0.11166704
-0.013676669 0.10332687 0.11639298 0.11550423 -0.077145845 -0.002652186 0.2658584 -0.04974868
-0.009639784 -0.012197762 0.00015476688 -0.047250867 -0.061456785 0.0007934056 -0.017499633 0.049761966
0.06363789 -0.079748265 0.12027276 0.112933636 0.053944767 -0.022732578 -0.07086493 -0.02537227
0.12018809 0.1360732 -0.0756133 -0.0050213696 -0.056628346 -0.0032287817 -0.060553487 0.09841772
-0.16559556 -0.17585373 0.06057749 -0.22532183 0.117321104 0.10611171 -0.12023766 -0.21406375
-0.08036165 -0.15232752 0.21122697 0.034875933 0.09534957 0.18722096 0.15089081 0.07949014
0.18649548 0.112710655 0.06448981 0.032120515 0.057845607 0.10909628 0.20984758 0.22151403
0.035696175 0.12292554 0.08654383 -0.013527009 0.07471622 0.17625518 -0.06105695 -0.05223329
-0.04445284 0.009504807 -0.05320128 0.036584117 -0.08007245 -0.18421265 -0.15103565 -0.15790433
0.24120505 0.10300901 -0.03940447 -0.16000944 -0.12424905 -0.13681741 0.12502551 0.069577746
-0.0017834407 0.029232014 0.10452927 -0.031072676 -0.01198734 -0.029202482 3.1489224e-11 3.07856e-05
0.022568032 0.005831294 0.048156224 -0.09727508 -0.001049805 0.078260265 0.30594525 0.1561252
-0.018579965 0.17905816 0.19946772 0.16651022 0.04701781 -0.089669 0.05669723 0.3807483
-0.045842264 0.06792228 0.1523942 0.040648773 0.09929408 0.09450463 -0.013975166 -0.014440057
-0.1376904 -0.122618966 -0.10468514 -0.06479573 -0.003946057 -0.0075015677 -0.027259346 -0.1111753
-0.053112995 0.1008073 0.11656693 -0.09540397 -0.12176769 -0.09320899 -0.10694893 0.058500547
0.12788059 -0.17804606 -0.09155586 -0.027937919 -0.122777484 0.13336061 -0.01581619 -0.08831509
-0.13949746 -0.10657345 -0.13648145 0.11589202 0.123587824 0.16970702 0.1964522 0.1395605
0.3008822 0.15923806 0.16791503 0.13084868 -0.061895322 -0.07053895 -0.12407427 0.011113558

router.0.bias f4 [128]
00000000: 7002 e5bb 62a1 3a3e afad 4c3e 54a4 893e
00000010: 12f6 813e fca8 b03d 1cf8 3d3e b96b 533c
00000020: a11e d73d c363 603e bbdf 7c3e 789a 1b3e
00000030: fd7a 143e e277 1c3e 8e95 273e 90e8 683e
00000040: 4341 023e ba41 063e 1163 163e 3448 403e
00000050: df9d 6b3e 5839 1c3e 5a75 dd3d e7b6 973e
00000060: 655c bf3d fc26 163e c031 da3d 155f 7f3e
00000070: c388 f43d 46f1 583e d041 313e d3a2 613d
00000080: d948 0d3e 2570 2c3e c6bf 2a3e 4533 f93d
00000090: e457 ed3d ed94 a93d 5cde d23d cea5 dc3d
000000a0: 5e5b 9e3e 6e84 8c3e a779 563e 73e3 233e
000000b0: becb 283e 1d29 c23d d872 263e d00f 503e
000000c0: c0ce 3e3e 414a 163e 4d15 9d3d 7aa1 033e
000000d0: fa51 183e 5df4 663e 2992 cd3d b0f9 d93d
000000e0: e9e6 563e 2bde 473d 3046 063e b595 a73d
000000f0: 6130 ce3d 79c0 123e 33ea 103e c5c4 613e
00000100: bdf4 553e 893d b13d 0b4e 5a3e 543e 303e
00000110: 18db 373e fda1 793d 109b 2b3e a2dd 533d
00000120: 3fc8 713e 2591 4f3e ca5b 2b3e d304 483e
00000130: c6a0 8d3e 7218 233e 9d8d 713e 0fd4 583e
00000140: 821f 8d3d 82ee 3d3e 6339 253e a5eb 543e
00000150: 8b0d ec3d 9a92 ac3d bda3 613e ca88 0d3e
00000160: df9b 633e 2212 863d 8edf 883e 4b0c 603e
00000170: 2fda 6b3e 6bc9 703d 9d0d 753e 637b 713e
00000180: 70bb 1b3e bafa 213e 5821 7b3e ca64 b23d
00000190: 6075 8c3e 98b2 903e 6384 343e 1425 873e
000001a0: 35ec 8c3e b17d 8c3e 6876 553e 65c1 1a3e
000001b0: a51f 603e 7676 593e 8757 063e 3fbb 493e
000001c0: d193 213e d1bc 553e ab21 2a3e fc23 8b3d
000001d0: fbc0 453e 93b1 d23d dd51 363e 341a 7a3e
000001e0: 64d9 4f3e 9bad 023e d199 dd3d e92f 9d3d
000001f0: 57ff ce3d fb65 313e d503 473e 7499 e83d
-0.006988816 0.18225625 0.1998813 0.26883185 0.2538305 0.08625981 0.18551677 0.012904101
0.10503889 0.21913056 0.24694721 0.15195644 0.14500041 0.15280107 0.16365644 0.22744966
0.12720208 0.1311101 0.14686228 0.18777543 0.23009442 0.1525625 0.10813399 0.2963173
0.09343795 0.14663309 0.1065402 0.24938615 0.11940148 0.21185789 0.17310262 0.055086922
0.1379732 0.16839655 0.16674718 0.12167982 0.115890294 0.082803585 0.10296318 0.10773812
0.30929083 0.27444786 0.20944844 0.16004734 0.16483971 0.09480498 0.16254747 0.20318532
0.18633556 0.14676763 0.076700784 0.12854567 0.14875022 0.22554155 0.100376435 0.10643327
0.20986523 0.04879586 0.13112712 0.08182851 0.10067821 0.14331235 0.1415184 0.22047718
0.20894141 0.08654315 0.21318834 0.17211276 0.17954671 0.0609455 0.1675837 0.051725037
0.23611544 0.20270212 0.16734233 0.1953309 0.27661723 0.15927294 0.23589177 0.21174644
0.06890775 0.18548015 0.16135173 0.20793016 0.115260206 0.084263995 0.22035117 0.13821712
0.22227429 0.06546427 0.2673306 0.2187969 0.23032449 0.058785837 0.23930974 0.23582225
0.1520822 0.15818301 0.24524438 0.0871063 0.274333 0.28261256 0.17628627 0.26395476
0.27523962 0.27439645 0.2084595 0.15112837 0.21887071 0.21236596 0.13119327 0.19700335
0.15779044 0.20872809 0.16614406 0.06793973 0.19311897 0.10287776 0.17804666 0.24424058
0.20297772 0.12761538 0.10820354 0.07675154 0.10107296 0.17324059 0.19435056 0.11357394

router.3.weight f4 [150, 128]
00000000: c669 84bd 4889 30be 5dcc ccbd 3c99 01be
00000010: 8bb2 5bbe ed71 0bbe 636b 06be 647c 9abd
00000020: b6dc 61be 74f4 10be e6db b3bd 1bdf a2bd
00000030: 1e88 1bbe 471e 01be 0846 8dbb 1d75 23be
00000040: 6fb4 f8bd 9b9d 52bd fc8c 31be 4106 10bd
00000050: 6f64 e6bd 376a 93bd c271 1abe 3789 bcbd
00000060: 0393 d3bd f606 f7bd 6272 33bd 7d63 56bd
00000070: ea55 febd 9135 37be 2e82 43b8 1caf 04be
00000080: 2bbb 88bd 06f7 80bd 201c 23be 67e0 f0bd
00000090: 48e9 2cbd 3bcb fdbd 08e3 3cbe 6925 15be
000000a0: 8f4c b3bd 1026 14be eaac a2bd aa99 f6bd
000000b0: 890b ebbd 374e cebd a9e8 c9bc 6290 00be
000000c0: 34ff d5bd b9e9 0dbe 5bf1 e9bd 9a24 fbbd
000000d0: 484c 27bd a000 2ebd 2ce5 edbd 449e cfbd
000000e0: c954 b7bc d942 00be 07f3 92bd 1556 03be
000000f0: f947 89bc 8c64 13bd 7f3c 11be cd87 07be
00000100: d508 18be 4c5c 0ebc 0018 053d 6ce8 78bb
00000110: 8d93 5abe 6d19 30be 0fd6 15bd ce74 05be
00000120: c3ef 1cbe 2123 d3bc 0457 a4bd e40c dfbd
00000130: 7cfe d8bd 9ed2 cabd cb36 fdbd 55d0 d8bd
00000140: c072 f5bd 8234 1bbe ac2b bbbd 7cff f3bd
00000150: 13dd a7bd 0c49 25be e75a 14be 0959 29be
00000160: e6d1 3ebd 46e7 28be cc75 c7bd 69c8 86bd
00000170: efbc 55be 7e08 a2bd b19e 43be e8eb ebbd
00000180: befe 11be e87b 20be 38ca 7abd 86d7 71bd
00000190: c785 65be 35e8 94bd 13e9 a13c e910 69be
000001a0: b9b5 0dbe 203d b2bd bb70 16be b048 22bd
000001b0: 5dc7 24bd f884 02be 4f80 49bd dcf1 83bd
000001c0: 1072 4fbd 34a3 dbbd 2e62 65bd 6fce 06be
000001d0: c0b9 3cbe a8a0 09be 3ec0 4bbd 78a2 cdbd
000001e0: f66a 85bd ea0c 15be 2bd0 dbbd d8ef 20bc
000001f0: 5331 03be 59c9 d6bd 796f f6bd 6b33 68be
00000200: 623f 7cbd 76bd 2ebd c1de 42be 32b1 91bd
00000210: aee2 acbd 2f50 89bd 1631 7bbd b74b c4bd
00000220: 583c 3cbe 281b 5cbd 4255 7fbd 0b55 f0bd
00000230: d5f9 67be 0511 01be 87e1 08be feab dfbc
00000240: 3f9a 18be b610 2bbe 85e6 4bbe 8120 b6bd
00000250: d7f6 97bd 71c1 debd 9a6a e5bd 38b0 c5bd
00000260: 165b 18be 63cc dabd ab78 1cbe d3e7 5ebe
00000270: b32e 41be 8a31 3dbe 0cf2 403b e3cb 8ebd
00000280: 7e0c 1cbe 55aa d7bd f759 1dbe 5fab 1ebe
00000290: 8125 af3b 01aa 07be abe8 23be 82fa c9bc
000002a0: eb42 d8bd 7e7a 1bbe 62a3 ebbd 884b 8bbd
000002b0: dcf4 14be 9a72 04bd 576e 86bd 9420 01be
000002c0: bf20 30be e81a c4bd e2f9 52be b36c 6fbe
000002d0: 9f3a 14bd 1f30 d8bd c1ec b43c c91a f9bd
000002e0: 9244 cfbd 786a 00be 80d2 3bbe 0841 0dbe
000002f0: f86a a6bb 80e3 2abe 1767 08be 4363 dcbd
00000300: 9fe5 40be 6ad0 10be 45b2 85bd 574c 06be
00000310: 1052 60be 0ad8 0dbe 4f8d d8bd 52c5 b4bd
00000320: d71b 27be bc10 43bd 73f1 dcbd c560 23be
00000330: 3ce9 ecbd fbc3 35be cebd 0abe 5481 c4bd
00000340: bda9 13bd 1f88 41be 1aaf c2bd 66f2 35be
00000350: de74 e9bd 2d3e 31be c26a d9bd c806 3fbe
00000360: ed69 10be 5c19 fabd 3c06 3bbd 59ed 29bc
00000370: 0aae 6dbe 5463 eabc e386 f2bd 01d6 0fbd
00000380: f14d 0abe 6430 1ebe 169f c6b9 00e3 92bc
00000390: aeef 04be c374 e6bd cd86 94bd 86c1 72be
000003a0: dbad 1ebc 2d19 40be e670 1abe 4a19 b2ba
000003b0: 366c 9cbd d0f6 a2bd 8d7f 50bd d4bb 05be
000003c0: 7ad8 99bd b004 a7bd 7612 28bd 3715 2fbe
000003d0: b5ac 44be 15de 03be 86c7 2ebe e82f babd
000003e0: 2970 4cbe 0597 38be d251 adbd 09df 96bd
000003f0: a01c 07be 6b2a e7bd 23b7 0ebe a9a9 62be
-0.06465487 -0.17239869 -0.09999917 -0.1265611 -0.21454827 -0.13617678 -0.13126902 -0.07543257
-0.22056851 -0.14155751 -0.08782177 -0.0795271 -0.15188643 -0.12609206 -0.004311327 -0.15962644
-0.1214379 -0.051419836 -0.17338938 -0.035162214 -0.11249625 -0.07197993 -0.15082458 -0.09205859
-0.10330775 -0.120618746 -0.043810256 -0.052340973 -0.124187306 -0.17891528 -4.6612862e-05 -0.12957424
-0.066763245 -0.06297116 -0.15928698 -0.11761551 -0.04221466 -0.12392279 -0.1844598 -0.14565052
-0.08754837 -0.14467645 -0.07943137 -0.12041028 -0.114768095 -0.10073512 -0.024647074 -0.12555078
-0.10449067 -0.1385869 -0.11422988 -0.122628406 -0.04084423 -0.042481065 -0.11615977 -0.10137609
-0.022379296 -0.125255 -0.0717526 -0.12825806 -0.016757952 -0.03598456 -0.14183234 -0.13235398
-0.14847119 -0.0086889975 0.03249359 -0.003798033 -0.21345349 -0.17197199 -0.036581095 -0.13032839
-0.15325837 -0.025773587 -0.080244094 -0.108911306 -0.10595414 -0.09903453 -0.123639666 -0.10586611
-0.119847775 -0.15156749 -0.09139189 -0.11913964 -0.081964634 -0.16141146 -0.14487801 -0.1653787
-0.046586893 -0.16494474 -0.09739265 -0.06581194 -0.20872854 -0.07911776 -0.19103505 -0.11519605
-0.14257333 -0.15672266 -0.061228007 -0.05904343 -0.22414313 -0.072708525 0.019764459 -0.22760357
-0.13838853 -0.08703065 -0.14691441 -0.0396201 -0.04022919 -0.12746036 -0.04919463 -0.064426154
-0.050645888 -0.10724488 -0.056001835 -0.13164686 -0.18430233 -0.13440192 -0.049743883 -0.10040754
-0.06514542 -0.14555708 -0.10733064 -0.009822808 -0.12811784 -0.10487623 -0.120329805 -0.22675864
-0.061583884 -0.042661153 -0.19030286 -0.071138754 -0.08441673 -0.06704747 -0.06132611 -0.09584754
-0.18382394 -0.053736836 -0.062337168 -0.11734971 -0.22653897 -0.12604149 -0.13367282 -0.027303692
-0.1490259 -0.16705593 -0.19912155 -0.088929184 -0.07420128 -0.1087674 -0.11201973 -0.09652752
-0.14878497 -0.10683515 -0.15280406 -0.21768121 -0.1886547 -0.18475929 0.0029441146 -0.06972482
-0.1523914 -0.10530535 -0.1536635 -0.1549506 0.005345047 -0.13248445 -0.16006725 -0.024655584
-0.105596386 -0.15183446 -0.11505772 -0.06801516 -0.14546531 -0.032335855 -0.065640144 -0.12610084
-0.17199992 -0.095754445 -0.20603135 -0.23381309 -0.036188718 -0.10556053 0.02208555 -0.12163312
-0.101205006 -0.12540615 -0.18342018 -0.13794339 -0.0050786696 -0.16688347 -0.13320576 -0.1076112
-0.18837593 -0.14142004 -0.06528143 -0.13115059 -0.21906304 -0.13851944 -0.105738275 -0.08826698
-0.16319214 -0.04762338 -0.1078824 -0.15954883 -0.115679234 -0.17750542 -0.13548967 -0.0959498
-0.036050547 -0.18899582 -0.09506054 -0.17768249 -0.11399244 -0.17308874 -0.106160656 -0.1865493
-0.14102907 -0.12211868 -0.045660242 -0.0103715295 -0.23210922 -0.028611816 -0.11842134 -0.0351162
-0.13506295 -0.15448147 -0.0003788403 -0.017930508 -0.12982056 -0.11252739 -0.07252274 -0.23706636
-0.009685005 -0.18759604 -0.1508213 -0.0013587859 -0.07637827 -0.07957232 -0.050902892 -0.13059932
-0.07511993 -0.08155191 -0.04103323 -0.17097937 -0.19206508 -0.12877686 -0.170683 -0.09091169
-0.1996466 -0.1802636 -0.084628716 -0.07366759 -0.13194513 -0.112873875 -0.13937049 -0.22135033

router.3.bias f4 [150]
00000000: b1a8 1dbc 201e fcbc f66c babc c704 e2bc
00000010: 9a15 6cbd a6b3 9f3d 6974 5fbc 4e90 81bd
00000020: 4a12 02be b207 3fbe dbc3 21be 691d b33c
00000030: e3f0 82bd b5e3 c2bd 4d26 1bbe b578 51bc
00000040: f11d 113c 27a8 88bc e2f5 b7bd e437 053e
00000050: a672 7e3d ef86 90bc 9afa 103d 29f1 ccbd
00000060: db43 b0bd 3181 35be d4a5 7fbd bc67 bfbd
00000070: 62cb 8bbd 6ae1 12be b64b cc3d 6dd5 98bd
00000080: 7fcb 6abe d112 25be 7163 83be c919 38be
00000090: 42e4 17be bc50 27be aa39 7cbe e0c9 9abe
000000a0: 9fb8 07be 7bc3 55be 2ca3 27be 15a1 8ebe
000000b0: acb2 49be 5449 81bc 29f3 56bd 093b ff39
000000c0: 66b2 9bbd ea9c f2bd 16ae 12be f6e6 b23d
000000d0: 8712 8d3c 2b89 47bd 1122 15bd 0c27 f4bc
000000e0: fb86 7bbd 587a 4dbd 6a46 193b 7019 09bc
000000f0: c70e 78bb cf91 dabc 3b09 0abd 6f7b b5bd
00000100: 5b51 a83d f30a c8bc 3814 ccbd 3772 4b3b
00000110: b185 0dbd 0eaf c63d 7bf1 883d 1819 78bd
00000120: 0b8c a23c 667c debc 50ff d5bd 21a7 9ebd
00000130: a711 0dbe cf0b 1cbd 1cdc fdbc f2c5 0f3e
00000140: b28a 6ebd 785d 3fbd 036b d93b c95e 95bd
00000150: 61a4 c9bd 5d3f 36ba a45d 22bd f90c aabc
00000160: 97fd 823d 619f a9bd 76b6 b3bc 531f 28be
00000170: 7546 1bbe 5c11 11be 2adf eabd d31e 21be
00000180: e762 efbd d62b 4abe d5e1 d3bd f801 6bbe
00000190: 5b52 31be fea9 24be 224b 2dbe c560 ebbd
000001a0: 86a4 d5bd 152e 80bd de28 ee3b a20b b33d
000001b0: c76e aebd 2c68 d13c f775 c43c 8020 babd
000001c0: becd afbd 4cef f1bd 494f 4ebd 731a 093b
000001d0: 744a a4bd 5c8b 53bd 184e a13c 7df3 88bd
000001e0: 4323 c43c d616 0a3c 62f8 833c 59d8 0f3e
000001f0: 3d55 b1bd d153 a5bd 4f27 eebd 6c55 b0bd
00000200: 91fd 3cbd 9893 d63c 4e3e bdbd c3f5 653b
00000210: bdfa 95bd 25f8 83bd 7f12 90bc 40ba a1bb
00000220: 9c17 46bd 6017 a2bd e3fb debd 626b 413d
00000230: c348 aabc 17af bbbd 2ad9 65bd 41b8 febc
00000240: 540a 6fbc 69bb edbc 3235 c5bb ffce 69bc
00000250: d306 c6bb b9bf c1bd
-0.009622739 -0.030776083 -0.022757035 -0.027590169 -0.05763779 0.07797937 -0.013638594 -0.06326352
-0.12702289 -0.1865528 -0.15797369 0.02186461 -0.06393602 -0.09516088 -0.1515133 -0.012785126
0.008857236 -0.016681744 -0.08982445 0.13009602 0.062121056 -0.017642466 0.035395242 -0.10006935
-0.086066924 -0.17725064 -0.062414005 -0.09345958 -0.068259016 -0.14343801 0.09975378 -0.07462583
-0.2292919 -0.16120459 -0.25661805 -0.17978586 -0.14833167 -0.16339391 -0.24631372 -0.30232143
-0.13254021 -0.20875351 -0.16370839 -0.2785727 -0.19697064 -0.015782036 -0.05247799 0.00048681375
-0.07602386 -0.11846335 -0.14324221 0.087354586 0.017220749 -0.048714798 -0.03640944 -0.029803775
-0.061408024 -0.050165504 0.0023387917 -0.008367881 -0.0037850605 -0.026680855 -0.03370021 -0.08861434
0.08218642 -0.024419283 -0.09964794 0.003104342 -0.034551326 0.09701358 0.06686684 -0.060570806
0.019842168 -0.027158927 -0.104490876 -0.07746721 -0.13776265 -0.0380972 -0.030988745 0.14040354
-0.05823774 -0.046719998 0.0066350712 -0.072934695 -0.09845806 -0.0006952191 -0.039640084 -0.020758139
0.06396025 -0.08282352 -0.02193759 -0.16418199 -0.15163596 -0.14166778 -0.114683464 -0.15734415
-0.11688786 -0.19743285 -0.103458084 -0.2294997 -0.17316572 -0.16080472 -0.16923192 -0.11493067
-0.10431771 -0.062587894 0.0072680553 0.08742453 -0.08517223 0.025562368 0.023982031 -0.0908823
-0.08584164 -0.118132204 -0.05036858 0.0020920306 -0.08022013 -0.051646575 0.019690558 -0.06687067
0.023942595 0.008428296 0.01610965 0.14047374 -0.08658836 -0.08072627 -0.11628591 -0.08610043
-0.046140257 0.026193425 -0.09240399 0.0035089112 -0.07323215 -0.06443814 -0.017586945 -0.004935533
-0.04836236 -0.07914615 -0.10887887 0.04722155 -0.020786649 -0.09164255 -0.056115307 -0.031093718
-0.014589865 -0.029020028 -0.0060183043 -0.014270543 -0.006043294 -0.09460396
