GraphSAGE Embeddings/sage_best.pt (torch, 57827 bytes, 8 tensors)

conv1.lin_l.weight f4 [48, 93]
000000 a5 1a 2d 3e 15 5f 52 3e 8e 0d 2f 3e 77 c5 db 3d
       0.16904695 0.20544083 0.17095014 0.10731023
000010 73 06 0e 3e 4e c3 f5 3d e6 be 74 3e 57 69 ae 3e
       0.13869648 0.12000142 0.23900947 0.34064743
000020 68 e2 2f 3e 69 5f 05 be 1e 7c ac 3e f7 26 3e bd
       0.17176211 -0.13024677 0.33688444 -0.04642388
000030 c6 a1 82 bd d8 da 0d 3e fe 8d 94 3f 8e 46 1f be
       -0.06378512 0.13853014 1.1605833 -0.15554258
000040 79 a4 40 3e 65 77 40 3e 57 d2 16 3e e2 1e 71 be
       0.18812741 0.18795545 0.14728676 -0.23546937
000050 67 f6 5f be 51 fe c3 3d 18 5c 57 3e 0a 6d 86 3e
       -0.21871339 0.095699914 0.21031225 0.26255065
000060 67 2f 34 3e 8d 54 77 be f9 aa 5a be 2d 09 c4 3d
       0.17596208 -0.24153347 -0.21354283 0.09572063
000070 48 5e 57 3e c2 6c 86 3e 76 33 34 3e cc 68 77 be
       0.21032059 0.2625485 0.17597756 -0.2416107
000080 0d b2 5a be f3 82 1c be 11 37 d8 bd 10 27 63 bd
       -0.21356983 -0.15284328 -0.10557378 -0.055457175
000090 77 35 1c be 3d bb 89 bd 99 3d 8f bd 86 2b ae 3e
       -0.1525477 -0.06725166 -0.06994171 0.3401758
0000a0 71 62 77 3e 43 63 7b be 37 dd 91 3e 1b 23 00 be
       0.24158646 -0.24549584 0.28489086 -0.12513392
0000b0 96 80 aa bd 46 3a 99 3e b3 47 7e 3e 21 3d fa bd
       -0.08325307 0.29927272 0.24832039 -0.12218691
0000c0 8e d0 89 3e 70 3c a6 bd 6d 48 09 bd ef ca 8f 3d
       0.26916927 -0.08116996 -0.033516336 0.070211284
0000d0 67 c0 24 3d 2a 7a 84 3d 17 89 91 3d 53 7a 9c bd
       0.04022255 0.064686134 0.07106226 -0.07640519
0000e0 59 53 14 be 4d e6 f1 3c 14 28 a3 bd 06 ad 93 bd
       -0.1448492 0.029528761 -0.07966629 -0.07210736
0000f0 8f 7a 9b bd f0 95 1c be 2f d8 66 be c0 f7 f0 3c
       -0.075917356 -0.15291572 -0.22543405 0.029415011
000100 d3 ca a3 bd 71 4b 94 bd 92 24 9c bd 9d 3f 4a be
       -0.0799767 -0.07240952 -0.07624163 -0.19750829
000110 34 09 8a be fe 17 f1 3e a8 72 15 3f 45 89 15 3f
       -0.26960146 0.47088617 0.58378077 0.5841258
000120 c4 76 1e 3f f3 c7 c2 bd c0 83 bf bd 2d 67 5e be
       0.6189997 -0.095107935 -0.09351301 -0.21719046
000130 05 5c 2d 3e ae 7f 41 3e cd 95 19 3e 8e 34 63 bd
       0.16929634 0.18896362 0.1499855 -0.055470042
000140 fd 5b 51 bd b8 94 75 bd 75 45 6c 3e 04 20 72 3e
       -0.051113117 -0.059956282 0.23073371 0.23645025
000150 4e 25 5d 3e c7 b4 31 be 5e 71 2c be de df 54 bd
       0.21596262 -0.17354117 -0.16840121 -0.05197131
000160 99 29 d1 bd d0 26 f4 bd 3d 9b 00 be 9b da 58 bd
       -0.10213012 -0.119214654 -0.12559219 -0.052942853
000170 b9 28 e5 bd cb cb 39 3e 6a e0 42 3e 8a ee ef be
       -0.11189408 0.18144147 0.1903092 -0.46861678
000180 03 27 c4 3e 66 d9 6e bc 14 6c 04 3e cd de 70 3f
       0.38311014 -0.014578199 0.12931854 0.94089967
000190 f7 e9 f5 3d 23 ff 07 3e b6 83 26 3d 40 d0 f0 3d
       0.12007516 0.1328092 0.040652953 0.117584705
0001a0 aa bf fe bd cd 21 36 be 51 0b 70 bc 2a 73 8e be
       -0.12438901 -0.17786331 -0.014651136 -0.27822238
0001b0 eb 03 b0 3e 63 79 5f 3e 4b 79 68 3e 1b a4 52 3e
       0.3437799 0.21823649 0.2270252 0.20570414
0001c0 2b 31 8e 3d 94 c8 83 3d ef c6 50 3d 21 3a 8c 3e
       0.06942972 0.064347416 0.050970968 0.273881
0001d0 ae dc c0 3e 1a 4b 6d 3e 6e 6c 4f bb 50 aa 59 3d
       0.37668365 0.2317318 -0.0031650322 0.05314094
0001e0 83 ad 50 3d 8c 38 8c 3e 4e dd c0 3e e3 45 6d 3e
       0.050946724 0.27386892 0.37668842 0.23171191
0001f0 a2 9e 52 bb 2e 12 59 3d 6f f8 9e 3e 6e db 88 3e
       -0.003213801 0.052995853 0.31048915 0.26729912
000200 f4 2d b1 3d 61 ef a1 3e 1d 1f f0 bd 2b 02 0d be
       0.08651343 0.31627944 -0.117246844 -0.13770358
000210 7b 21 18 3e e8 ca cb 3d 44 14 f4 bc 1d c5 09 3e
       0.14856522 0.09950811 -0.02979482 0.13454099
000220 2f 76 e1 3d 09 81 13 3e ad 1e fd 3d a6 6a ee 3d
       0.1100887 0.14404692 0.123593666 0.11641435
000230 b8 0e 7f 3d 74 a0 05 3e 2b 63 fe 3d e9 cb 10 3e
       0.062269896 0.1304949 0.124212585 0.14140286
000240 b9 66 fc 3d 28 28 68 3e 6f 28 87 3e 18 66 53 3e
       0.1232428 0.22671568 0.26398036 0.20644414
000250 3c 36 51 3d 81 b5 35 3d b2 3d a7 3d 84 c3 f6 3c
       0.051077113 0.04436255 0.08166064 0.030122526
000260 59 c5 f6 3c 53 b1 2c 3d 25 bd 3c 3e 6e 54 66 3d
       0.0301234 0.042161297 0.18431528 0.056232862
000270 f4 49 a7 3d 4e bc f6 3c 4a ce f6 3c 91 ad 2c 3d
       0.08168402 0.030119088 0.030127663 0.042157713
000280 34 7f 34 3e e6 2c 4b 3d f3 be 04 3e a7 c0 de 3c
       0.17626649 0.049603365 0.12963466 0.027191473
000290 6e 7e 71 3c b5 d5 a8 3c ab cb 4d be ed 50 49 be
       0.014739616 0.020609716 -0.20097224 -0.19659777
0002a0 49 9b 93 3e 7f 14 c9 3d 80 25 20 3b 94 49 cb 3c
       0.2882941 0.098183624 0.0024436414 0.024815358
0002b0 b7 91 1c 3e 25 35 2a 3d b7 44 a8 3d ba e3 8f 3d
       0.15289961 0.04155459 0.08216231 0.07025857
0002c0 ef f0 a6 bc 3c 72 11 bd f0 bf 3c 3d 3f 6b 84 bd
       -0.020378558 -0.035509333 0.046081483 -0.06465768
0002d0 27 74 7a bd 39 f7 57 3e 59 e1 f2 3d 08 8a de 3d
       -0.061145928 0.21090402 0.11859388 0.10866171
0002e0 ab d8 d2 3c 29 fa 35 bd d0 1f f9 bc 01 9d 10 bd
       0.025738081 -0.044428024 -0.030410677 -0.03530598
0002f0 f8 32 53 3d 95 f1 19 be a1 b2 89 3d 67 44 33 be
       0.05156228 -0.15033562 0.06723524 -0.17506562
000300 cc 96 a5 3c b8 2e d3 bc 23 0f 22 bd 02 89 0e bd
       0.020213507 -0.025779113 -0.039565217 -0.03479863
000310 ba 89 16 bd 72 95 66 bd 56 93 3c bc 39 af 89 3d
       -0.03675244 -0.056294866 -0.011509737 0.06722874
000320 76 b6 38 bd df a0 42 bd fa 5e bf bc 59 ad 09 bc
       -0.045095883 -0.0475167 -0.023360718 -0.008403146
000330 64 ba af bc 35 ac b8 bd b6 8f fc bd fc d1 72 bd
       -0.021451183 -0.09017221 -0.12332098 -0.059282288
000340 50 54 67 bd be d0 a8 bc d0 89 6c bd 1e 8c 6a bc
       -0.05647689 -0.020607349 -0.057748616 -0.014315633
000350 fe 6f bf 3c 12 d0 72 bd 91 52 67 bd 92 cf a8 bc
       0.023368832 -0.059280463 -0.056475226 -0.02060679
000360 0c 87 6c bd 32 0f 6b bc 1e 88 bf 3c 78 55 b9 bc
       -0.05774598 -0.014346885 0.023380335 -0.022623762
000370 94 eb f5 bc c0 09 ea bc 1c 11 d8 bc f1 4c 7c 3d
       -0.030019559 -0.028569102 -0.026375346 0.061596815
000380 96 8a 7b 3d e4 79 e4 bd ca 03 c1 bd 6a 59 61 bc
       0.061411463 -0.11156061 -0.09424551 -0.013754228
000390 78 b5 cf bd d7 c2 00 bb 2f c7 50 3c 70 35 f1 bd
       -0.10142034 -0.0019647384 0.012742802 -0.117777705
0003a0 c1 d6 e1 bd 4d 3e 2e 3c 76 1e e7 bd 40 76 d3 bb
       -0.11027289 0.010634971 -0.11285107 -0.0064533055
0003b0 04 08 5d 3c 5a 81 ba 3d f2 17 fa 3d 6a 21 57 3d
       0.013490681 0.09106703 0.122115985 0.0525221
0003c0 82 25 ca 3d 41 14 2f 3e 94 e0 3a 3e 76 89 d8 bc
       0.09870435 0.1709757 0.18249732 -0.026432734
0003d0 7f 83 24 bc 90 8a 1c ba bd 18 a7 bb 0e c6 0b bd
       -0.010041117 -0.0005971575 -0.0050993846 -0.034124427
0003e0 96 55 70 bd 0f 8a d8 bc 5b 84 24 bc b8 e2 1b ba
       -0.05867537 -0.026433019 -0.010041322 -0.00059465645
0003f0 78 1a a7 bb 63 5d 13 bd 8c 44 7b bd bb 45 3a 3d
       -0.005099591 -0.035977732 -0.06134467 0.045476656

conv1.lin_l.bias f4 [48]
000000 46 37 88 be a4 89 93 bf 18 2d 23 bf 0c 38 17 bf
       -0.2660467 -1.152638 -0.6374068 -0.59069896
000010 71 53 09 be 25 06 16 bd 08 37 27 bf f7 e2 7d bf
       -0.13410737 -0.036626954 -0.65318346 -0.99174446
000020 32 3f 28 3f ac 64 16 3f 57 0d a5 bf 6e 40 a3 be
       0.6572143 0.58747363 -1.2894696 -0.31885093
000030 66 64 20 bf 5c a8 63 3f d7 13 70 bf 98 09 a9 3e
       -0.62653196 0.8892877 -0.93780273 0.33015132
000040 c0 f4 61 be e1 7a b7 be a1 7c 5c bd 92 62 82 bd
       -0.22066021 -0.35835937 -0.053829793 -0.06366457
000050 4d 7e fa be c5 bb 41 bf a4 9d 07 3f dd 19 68 bf
       -0.48924485 -0.7567714 0.52974916 -0.90664464
000060 0b 54 61 3f 5d 21 20 3f 64 0e 8e bf 3c b1 9c be
       0.88018864 0.6255091 -1.1098142 -0.3060397
000070 6e ea e2 bd 54 03 f7 be dc cf 12 3f de cb fa be
       -0.1107987 -0.48244727 0.5734842 -0.48983663
000080 f9 e9 18 3e 5b 6d c0 3d 16 14 e1 be 89 3c af bc
       0.14933003 0.09395858 -0.43960637 -0.02139117
000090 0c a5 f5 be 0e f4 b7 be 81 0b f7 be 3c 7c 9f be
       -0.47977483 -0.35928386 -0.48250964 -0.3114947
0000a0 bd f2 fa 3d f7 35 06 bf 05 50 d4 bd 81 67 5d bf
       0.1225333 -0.52426094 -0.10366825 -0.8648606
0000b0 b9 5d 97 be 9c 63 3a bf 63 f9 20 bf 91 dd 16 c0
       -0.29563692 -0.7280824 -0.62880534 -2.3572733

conv1.lin_r.weight f4 [48, 93]
000000 46 98 85 3d 4b 3f 92 3e 52 24 56 be 19 f1 36 3f
       0.065231845 0.28563914 -0.20912293 0.71461636
000010 1c 7d 1a 3d e2 f6 1b 3f 81 77 57 3f 83 cf 55 bc
       0.03771697 0.6092359 0.84166723 -0.013049963
000020 d1 06 aa 3c 7a bf 0b bd a9 a2 4f bc 61 d5 f9 be
       0.020755203 -0.034118153 -0.012673059 -0.48795608
000030 e0 94 0e bf a7 ae 1a 3d 0c ee 7b be 59 4f 26 3f
       -0.55695915 0.037764218 -0.24602526 0.64964825
000040 2d 69 35 3d 91 ac d4 3d 94 ee 62 3e 11 fe 20 be
       0.044289757 0.10384477 0.22161323 -0.15721919
000050 14 f5 91 be 33 66 a6 3d 39 e2 79 3d 79 19 97 3c
       -0.28507292 0.08124962 0.06100676 0.018444763
000060 ac 7b 8d 3d e3 87 e6 be f5 74 0d bf cb 69 a6 3d
       0.06908354 -0.45025548 -0.5525659 0.08125647
000070 7c e6 79 3d ea 18 97 3c 53 7e 8d 3d f8 bd e6 be
       0.061010823 0.018444497 0.0690886 -0.4506681
000080 de b0 0d bf 8c 7e 16 bc 2d d5 58 bc 20 b5 8f 3c
       -0.55348 -0.009185445 -0.013234419 0.017542422
000090 64 55 07 bc c1 2b 4d be 0f b0 3f be 78 c2 2c bd
       -0.008260105 -0.20036222 -0.18719505 -0.042177647
0000a0 5e 77 04 bd 30 d3 ec bc 80 34 16 bd e5 a5 09 3e
       -0.0323404 -0.028909296 -0.03667116 0.1344219
0000b0 b9 20 0d 3e 1f 42 4e bd dc 2e 4a bd 7f ef 97 bc
       0.13782014 -0.050356027 -0.049361095 -0.018546818
0000c0 4e e7 51 bd f5 de 18 3e b2 bd 13 3e be 4f 9e 3e
       -0.05124598 0.14928801 0.14427832 0.30920213
0000d0 60 18 d3 3e 1e 87 0b 3e e9 41 b4 3e f5 c8 e6 3d
       0.41229534 0.13625762 0.35206535 0.11268798
0000e0 ca c8 4c 3e bf 51 3d bd 17 2c f1 bc 77 16 fb bc
       0.1999847 -0.046220537 -0.029439969 -0.03065036
0000f0 79 7e f6 bc b5 f1 3e be 73 00 21 be fb 47 3d bd
       -0.030089604 -0.18646891 -0.15722828 -0.046211224
000100 1e 1d f1 bc 1c 11 fb bc df 76 f6 bc 8a e0 18 be
       -0.02943283 -0.030647807 -0.030085979 -0.14929405
000110 80 d4 05 be 62 5d 8c bd ea a4 3e bc c7 79 a4 bb
       -0.13069344 -0.06853749 -0.011635998 -0.0050194
000120 9f 1c b9 bc 74 a5 2e be ba 1a 2f be 7f 77 9c 3d
       -0.022596655 -0.17055303 -0.17100039 0.076399796
000130 c5 f6 33 3b 8e 0d 4d bc b4 15 25 bc fd 8b 0f bf
       0.0027460319 -0.012515439 -0.010075975 -0.5607298
000140 68 1b 17 bf 39 7d 42 3e 1d 5d 8d 3c 16 1d 04 bc
       -0.59026194 0.18993081 0.017256314 -0.008063575
000150 72 af 14 3c bc c0 94 bf ec 8d 90 bf b4 e8 05 be
       0.009075033 -1.1621318 -1.1293311 -0.1307705
000160 a7 c3 cc 3e 4b 70 a3 3e b1 15 40 3e 60 f9 15 bf
       0.3999302 0.3192161 0.18758275 -0.5858364
000170 4b bb 00 bf 06 25 c1 3d c3 bd d0 3e 28 74 ed 3e
       -0.50285786 0.0943089 0.40769777 0.46377683
000180 f6 1f 04 3f 6d 98 23 3e 5a bf 05 3f 9a 59 64 3e
       0.5161127 0.15976115 0.52245104 0.22299805
000190 e5 f8 94 3d 2b 31 c4 3d 6a a8 1b 3e 3a 3c d3 3d
       0.07274035 0.095796905 0.15200964 0.10314222
0001a0 8a b2 40 bf 79 1a 40 bf de 91 23 3e a9 01 dd bb
       -0.7527243 -0.75040394 0.15973613 -0.0067445827
0001b0 d0 54 72 bd cc b4 5e 3d 94 a0 9b bd b1 35 fc bd
       -0.059162915 0.05437164 -0.07598987 -0.12314928
0001c0 e8 5b 7e 3e e6 26 8f 3e 0c e9 cd 3e 7f 7e a9 3e
       0.24839747 0.27959365 0.40216863 0.3310432
0001d0 16 90 12 3e e8 e7 bc 3e 85 96 c7 be b3 ae b2 be
       0.14312777 0.3689568 -0.38982025 -0.3489891
0001e0 41 e9 cd 3e f9 7d a9 3e 12 90 12 3e 80 e7 bc 3e
       0.4021702 0.33103922 0.14312771 0.3689537
0001f0 d6 6d c6 be 4b a5 b2 be e9 54 be 3d 24 50 07 3e
       -0.38755673 -0.34891734 0.09293539 0.13214165
000200 b1 0e 2f 3e 92 45 e5 3d 20 cf 14 3e 09 c2 15 3e
       0.17095448 0.1119491 0.14532137 0.146248
000210 33 7f 70 be 52 04 14 be 1c 22 14 3e fa ff 42 be
       -0.23486023 -0.14454773 0.14466137 -0.1904296
000220 ea 01 93 bd 83 e0 af bd 4a 06 91 be 69 a9 76 be
       -0.071780995 -0.08587744 -0.2832511 -0.24088062
000230 f9 26 49 3e ed d9 88 be 82 27 9d bd a3 97 d9 bd
       0.19643773 -0.26728764 -0.07673551 -0.106246255
000240 42 70 d2 bd 6d 63 f5 3d 80 9a cb 3e 36 a9 04 3b
       -0.10275318 0.119818546 0.39766312 0.002024246
000250 52 2a e9 bd 26 0f 19 be d2 5e 1f 3e f8 a0 98 3e
       -0.11385025 -0.14947185 0.15563515 0.2981031
000260 31 64 8a 3e 7d c9 9a 3e 84 7f 34 3f dd 86 6f 3f
       0.27029565 0.30231848 0.70507073 0.9356516
000270 7a 5d 1f 3e 18 ac 98 3e 73 6f 8a 3e b6 d4 9a 3e
       0.15563002 0.29818797 0.27038154 0.3024041
000280 a5 ef 3b 3f 2e 64 76 3f af 33 67 bc aa ac 6a be
       0.73412544 0.9624661 -0.014111443 -0.22917429
000290 bc 7a 85 be b0 25 88 be b5 c6 a5 3e 88 9c a2 3e
       -0.260702 -0.26591253 0.32378164 0.3176005
0002a0 e0 3f 01 3f 0c a7 9d b9 70 18 a0 bd 15 88 fb bc
       0.5048809 -0.00030069833 -0.07817161 -0.030704537
0002b0 79 5b c8 be 8b 34 d4 be ef 19 d0 3e 49 bd 34 be
       -0.39132288 -0.41446337 0.40644786 -0.17650332
0002c0 a4 87 7d be 1c c6 4f be c6 b6 ad bb 88 37 63 bb
       -0.24758774 -0.20290416 -0.0053013293 -0.003467055
0002d0 16 c4 18 bf fd c0 b3 3e 80 ef a6 3e 48 3c 1d bd
       -0.59674203 0.35108176 0.326046 -0.038387567
0002e0 fb 92 a8 3e 61 16 85 3e 48 f1 22 3d c3 dd 06 be
       0.32924637 0.25993636 0.039780885 -0.13170533
0002f0 72 b7 a7 3e e5 dc 87 3d 98 1a e2 bd ef 25 85 3d
       0.32757145 0.06633929 -0.110402286 0.06501376
000300 56 94 af 3c cc 8c 05 3e 36 c0 57 3d 96 f5 8c bd
       0.021433037 0.13041991 0.05267354 -0.06882779
000310 38 16 cb 3d 7f c4 26 be d8 26 77 be 6e 1c e2 bd
       0.09916347 -0.16285895 -0.24135911 -0.11040579
000320 62 32 02 bc 5c b8 76 be 6c 06 52 3d c4 73 82 3d
       -0.0079465825 -0.24093765 0.051275656 0.06369737
000330 b4 2c 57 3d 02 64 e4 bb d8 c8 01 bd 5f 0e c2 3d
       0.052532867 -0.0069699297 -0.03168568 0.09475397
000340 80 94 fd bc 48 a6 24 be 30 98 40 bb 6b 8c 5c be
       -0.0309546 -0.16079056 -0.0029387586 -0.2153794
000350 1b 03 82 be 00 0d c2 3d 37 89 fd bc 5f a4 24 be
       -0.25392994 0.09475136 -0.030949218 -0.16078328
000360 60 e6 40 bb 47 cf 5d be ec 2c 83 be 91 12 1c bc
       -0.002943419 -0.21661101 -0.2562021 -0.009525911
000370 b7 5a 1b 3c c1 4b b5 3d d5 fa 89 3b 75 6c 25 3e
       0.009482077 0.088523395 0.0042108097 0.16154654
000380 b5 f4 25 3e c1 32 3e 3e e6 c0 c1 3d 45 65 82 be
       0.1620663 0.18574049 0.094606206 -0.25467888
000390 be bb 03 3e 43 bd 54 bd 1c de ad bd 40 a7 40 3e
       0.12864587 -0.051938307 -0.084896296 0.18813801
0003a0 c1 43 0f 3e c6 ad 54 be ae b1 23 3e 26 7d 97 bd
       0.1399069 -0.20769414 0.15985748 -0.07396917
0003b0 44 b0 ec bd 8e 70 9a 3e c1 80 28 3e bd e7 35 be
       -0.115570575 0.30163997 0.16455366 -0.17764182
0003c0 c9 db 72 3e 49 6c c5 3c bc 97 ee bb ed e7 2c 3e
       0.23716654 0.024099486 -0.0072812717 0.16885348
0003d0 38 6a 2d 3e 65 eb 16 3e 07 24 36 3e 2c 9f 40 3d
       0.1693505 0.14738233 0.17787181 0.047026798
0003e0 be 72 13 3d 5d f2 2c 3e 37 6c 2d 3e fc ea 16 3e
       0.0359981 0.16889329 0.16935812 0.14738077
0003f0 ba 26 36 3e 4e 7f 3e 3d e1 d9 0f 3d 77 97 80 be
       0.1778821 0.046508126 0.035119895 -0.25115559

conv2.lin_l.weight f4 [48, 48]
000000 3a 26 46 bd cf 58 fb bd 60 cd 78 bd aa b5 23 bf
       -0.0483763 -0.12272798 -0.060742736 -0.6394907
000010 2d 5c d8 bd ee 49 88 bd 6d 8a cd 39 63 34 52 be
       -0.10564456 -0.06654726 0.00039203782 -0.20527796
000020 93 b5 ae bd 21 08 ba be ae f9 7f be cd d9 dd bd
       -0.08530726 -0.36334327 -0.24997589 -0.10832558
000030 6c ed 0f bd a9 84 8d bc e8 83 48 bd 5b aa 8a be
       -0.035138533 -0.017275171 -0.04895392 -0.27083096
000040 4c 65 06 bf 37 d0 98 3c ad 02 fb bd 31 a9 d8 be
       -0.52498317 0.018653972 -0.1225637 -0.42316583
000050 fd dc bb bd ff 27 9c be 15 04 af bd 17 14 55 3c
       -0.091730095 -0.30499265 -0.085457005 0.013005278
000060 f9 29 6e be b4 dd 4e be 9a 78 44 bc 6a 70 94 bb
       -0.23258199 -0.2020176 -0.011991644 -0.0045300024
000070 12 1e b6 bd b3 fb 50 bb 60 7f 4e be 0d ef 64 bc
       -0.08892454 -0.0031888306 -0.20165777 -0.01397301
000080 ca 33 94 be 04 77 88 bc 47 d3 e9 bd 32 4c 35 bd
       -0.28945762 -0.016658314 -0.11417251 -0.04426212
000090 80 f7 80 3c 3a d3 1e 3c df 39 0c bd 49 eb 93 be
       0.015743017 0.009693915 -0.034234878 -0.28890446
0000a0 b0 76 e2 be 60 7f 2b be 8f 31 03 bd 42 73 cb bd
       -0.44231176 -0.16747808 -0.032029685 -0.09934093
0000b0 62 22 e6 bd d7 7a 1e bf 97 09 33 bc ed 3b 17 3d
       -0.11237027 -0.6190619 -0.010927579 0.036922384
0000c0 74 73 a5 bc a8 36 03 bd 1f 25 6b be 56 82 3c be
       -0.020196654 -0.032034546 -0.2296338 -0.18409094
0000d0 ed ab 18 bd 35 63 35 be 37 f8 10 38 bb 6f 75 bc
       -0.037273336 -0.17713626 3.4563443e-05 -0.014980252
0000e0 3f 00 34 be 74 e3 9a bd 86 eb 00 be 3f e3 30 b6
       -0.17578219 -0.075629145 -0.12589845 -2.6358318e-06
0000f0 79 53 8f be 74 3f 8d be 9c 4f a4 be 89 30 8f be
       -0.27993372 -0.27587473 -0.32091987 -0.27966717
000100 f4 00 34 be b4 20 46 bc b6 a7 37 be f7 80 f8 bc
       -0.17578489 -0.012092758 -0.1793507 -0.030334933
000110 b5 e8 e7 b9 a7 a5 37 bd a9 8a 39 be 7a c4 d1 ba
       -0.00044233134 -0.044835713 -0.18119301 -0.0016003989
000120 04 c5 a8 bd 0d 2e 66 be dc 7c 3d b7 55 34 c0 37
       -0.08240703 -0.22478504 -1.1294349e-05 2.2912553e-05
000130 db 45 60 b6 f3 6d 8b bc 0b a1 c2 bd 5a 78 48 bd
       -3.3419262e-06 -0.017020201 -0.09503373 -0.0489429
000140 3c 8c 41 bd c0 de 1f be c7 a2 aa be 4b 5a 8e bc
       -0.04725288 -0.15612316 -0.33327314 -0.01737704
000150 de 33 87 bd 2d 96 2a be 4e 93 c3 be 11 b9 28 be
       -0.0660169 -0.1665885 -0.38198322 -0.16476847
000160 61 1c 21 bd 60 af b9 bc 4c 8b d3 be 58 28 18 bd
       -0.039333705 -0.022666633 -0.41317213 -0.03714785
000170 be 63 79 be 26 80 4d bd 5f bd 06 b9 19 81 87 bc
       -0.24354455 -0.05017104 -0.00012849782 -0.01654105
000180 bc 26 81 3b 45 0e 13 3c a1 61 bd 3b 54 ca af 3a
       0.003941385 0.00897557 0.0057794605 0.0013411739
000190 94 fe 0d bd 0a 95 68 bc e9 db 1b 3a bc 5f 6b 3b
       -0.034666613 -0.01419569 0.000594555 0.0035915216
0001a0 02 f8 5b bc 4d 51 2d bc d2 6b 6b bc ca 6a e6 ba
       -0.013425829 -0.010578466 -0.014368968 -0.0017579433
0001b0 e3 7c 05 bc 5e 28 b4 3b 30 1f 86 ba 63 5b 7b 3c
       -0.008147451 0.005497976 -0.0010232683 0.0153416125
0001c0 d8 32 56 bc ea 69 89 bb 6a d1 74 bc 8e b4 9e bb
       -0.0130736455 -0.004193534 -0.014942506 -0.004843301
0001d0 ee a8 8d bc 37 84 1d 3d f9 6a aa 3b 91 62 9f bb
       -0.017292466 0.038456168 0.0052007404 -0.004864045
0001e0 3d 4c 94 bd 17 62 b1 bc 0e bb 2d 3b 74 2d eb 3a
       -0.07241104 -0.021653218 0.0026509198 0.0017942623
0001f0 16 0c 18 bb f1 54 09 bb 0b e2 45 bc b6 46 bb bc
       -0.0023200563 -0.002095517 -0.012077819 -0.022860866
000200 65 60 0d bc bd e5 fb bb 41 c7 97 bc f3 08 28 bd
       -0.008628939 -0.007687299 -0.018527629 -0.04102416
000210 4d 5d b6 bb bf cf 0e bc 32 2a 82 bc c2 49 14 bc
       -0.0055653215 -0.008716523 -0.01588926 -0.009050788
000220 08 96 8c bc a8 f8 d3 ba 7e 7f c4 bb b4 71 51 3b
       -0.017161384 -0.0016172128 -0.0059966436 0.0031958641
000230 49 af 14 3c fe 4f ce 3a ce f2 1d 3c 8b ae bc bb
       0.009074994 0.0015740392 0.009640409 -0.005758112
000240 ee 0f 92 be 1b 90 d1 be 71 fd 28 35 54 e9 2c bf
       -0.28527778 -0.40930256 6.295368e-07 -0.6754353
000250 43 aa c2 bc f7 cf 4b bf e1 d1 f4 bc 52 8a 20 be
       -0.023762828 -0.79614204 -0.029885234 -0.15677765
000260 c7 0b 3d bf 9b b2 00 bf e0 47 3e bf 8b 85 a8 39
       -0.73846096 -0.5027253 -0.7432842 0.00032142954
000270 7f b0 c7 bc bc a2 90 be 10 46 37 bf 10 8f 6e bf
       -0.024376152 -0.28249156 -0.7159128 -0.93187046
000280 a9 11 4b bf 87 84 e7 bd e5 03 51 3e ec 2b 1a be
       -0.7932382 -0.113045745 0.20411642 -0.15055817
000290 1b 42 01 38 da 1a 3f bf e3 f0 56 bf d5 66 60 bd
       3.0817562e-05 -0.7465035 -0.83961314 -0.05478557
0002a0 40 35 1c bf 9c 95 b7 be be f7 3b bf 95 5c 34 bf
       -0.61018753 -0.3585633 -0.734249 -0.7045377
0002b0 2a 09 3e bf d4 77 3f bf a2 00 18 be b8 71 2c bf
       -0.74232733 -0.7479222 -0.14843991 -0.6736102
0002c0 bc 85 5e be c7 46 8a bd 78 80 ca bc 3d eb 34 bf
       -0.21730703 -0.06751781 -0.024719462 -0.70671445
0002d0 0c 6d 43 bf 81 ba 17 3d cc 26 4f bf cd 49 2e 3c
       -0.7633827 0.0370431 -0.80918574 0.010637713
0002e0 27 a6 8f 3c 89 2e 10 3d 72 f7 0d bf 33 9f 7b be
       0.017535282 0.03520063 -0.55455697 -0.24572448
0002f0 5e 49 a5 bb c7 99 a7 be fd 63 37 bf 03 b4 4c be
       -0.0050441464 -0.3273451 -0.71636945 -0.19990544
000300 3c cf 3d bd e0 f8 1a 3d df 26 d3 3e 22 fc a3 3d
       -0.046340212 0.037835002 0.41240594 0.08007075
000310 2a b6 55 3e 82 85 30 3d 36 d4 cd 3e e7 4f 6a 3d
       0.20870271 0.043096073 0.40200967 0.057205107
000320 83 a2 18 3d 62 16 26 3e 5e 4c c0 be b8 e6 dd 3d
       0.03726436 0.16219476 -0.37558264 0.10835022
000330 36 1a 47 3d d6 8d 42 be 75 b4 bd bd 81 9f 54 bd
       0.04860898 -0.18999419 -0.09262935 -0.051909927
000340 e5 f5 46 3e 65 3d 42 be 1b 73 58 be 14 1d 1f 3e
       0.19429739 -0.18968733 -0.21137659 0.15538436
000350 a2 65 aa 3d 64 e9 f4 be d9 8d 12 be 06 81 02 be
       0.08320166 -0.47834313 -0.14311923 -0.12744531
000360 da 27 15 3d 9a d3 5c 3e cb 94 7f be 4d 1f 4b bd
       0.03641496 0.21565095 -0.24959104 -0.049590398
000370 a5 90 bd bd e5 cc 3f 3e 61 64 9b 3e 7d a1 62 be
       -0.092561044 0.18730505 0.3035002 -0.22131915
000380 58 db 10 bd 75 98 0e be 2d a0 a7 bd 2c 63 bb bd
       -0.035365433 -0.13925345 -0.08184848 -0.09149775
000390 ed bf 34 be 70 29 2d 3e 42 57 c2 be 67 c3 01 be
       -0.17651339 0.16910338 -0.37957197 -0.12672196
0003a0 99 ee db 3d af 7a da 3d c3 64 37 bb 1e ca ce bd
       0.10738868 0.10667931 -0.0027983643 -0.100971445
0003b0 6c a5 2b 3e c3 4b 69 be 8e d5 c2 be 35 7d 2c 3e
       0.16762322 -0.22782807 -0.38053554 0.16844638
0003c0 2e 29 85 a8 ff fe 46 be 2f 9c e2 a9 f8 05 29 be
       -1.4783825e-14 -0.19433211 -1.006351e-13 -0.16506183
0003d0 34 56 57 a9 a4 e7 27 29 1a 80 8d 25 7c b3 c2 28
       -4.781436e-14 3.7282365e-14 2.4546406e-16 2.1616166e-14
0003e0 2b 37 ca be 81 7b 47 a9 bc 15 9f bd b3 8a 0b a7
       -0.39495215 -4.4294e-14 -0.077678174 -1.9365314e-15
0003f0 0b 92 d7 bc 7f 23 3b b2 e0 54 55 be e5 2f 95 be
       -0.026314756 -1.08929035e-08 -0.20833158 -0.29138103

conv2.lin_l.bias f4 [48]
000000 19 03 95 bd fa 25 be bc ff 9f 09 bc b2 3d 2c be
       -0.072759815 -0.023211468 -0.008399962 -0.1682041
000010 d6 47 06 3e 05 48 af bd d5 b4 43 b7 4f fc 3f bb
       0.1311334 -0.085586585 -1.1665009e-05 -0.0029294675
000020 1b dd a6 ab d2 e9 c8 b1 09 64 2c aa ea 5d 6a be
       -1.1856379e-12 -5.8473484e-09 -1.5311375e-13 -0.22887388
000030 d6 26 99 b2 2c af 82 bc 0d b1 d2 bc f6 90 e8 bc
       -1.7829205e-08 -0.01595267 -0.02571919 -0.028389435
000040 29 5d 23 bf 43 21 e6 b5 73 1d 7b a3 74 ce 8a b4
       -0.63814026 -1.7146016e-06 -1.3612973e-17 -2.5854717e-07
000050 31 25 86 bd 42 f8 33 bc 6e a6 c7 3f de f4 be ac
       -0.065500624 -0.010984482 1.5597665 -5.4273105e-12
000060 29 df 32 be a9 7a 42 bd 8b 6c 55 40 22 d7 89 3e
       -0.17467941 -0.04748026 3.33475 0.26921946
000070 9c 71 d1 ba e1 8d 3f be 85 4c 0d 3e 20 0e 37 40
       -0.0015979293 -0.18706466 0.13798721 2.8602371
000080 3b 28 2a bf 2c ba 47 40 fc 34 97 bc 3d a4 ae ba
       -0.66467637 3.120738 -0.018457882 -0.0013324093
000090 d8 01 ee b9 41 dc 5a bd 5a b5 ab bd 0a 68 b7 a3
       -0.0004539627 -0.053432707 -0.083841994 -1.9884962e-17
0000a0 15 b5 0b bf a9 94 8d af 91 d3 af 3f 7e 12 aa bb
       -0.54573184 -2.575338e-10 1.373644 -0.0051901927
0000b0 49 9d dd bd 8d ff c5 ba 20 c9 90 bb df 45 65 be
       -0.108210154 -0.0015106067 -0.004418507 -0.22389935

conv2.lin_r.weight f4 [48, 48]
000000 4d 35 df bd ae e7 ec be 19 84 4d bd 51 2e e0 be
       -0.10898838 -0.46270508 -0.050174806 -0.43785337
000010 59 91 98 be 3c b2 8d 3e 55 06 7f bd 2f 33 6c be
       -0.2979839 0.27675045 -0.062261898 -0.230664
000020 13 22 40 bc f8 06 0a bd 2e 05 31 bd 8a c5 89 bd
       -0.011726874 -0.033698052 -0.04321783 -0.06727131
000030 71 5b 3d be be b1 3e bb 90 b1 d8 be 0c a7 59 be
       -0.18491913 -0.0029097642 -0.4232297 -0.2125513
000040 c4 db 25 3e 5b 01 34 3e 46 ad 6b 3d 73 65 84 3c
       0.16197115 0.17578642 0.057538293 0.016161656
000050 d5 77 cf 3c 7c e0 a1 be e4 1f 40 be e2 7b fb 3c
       0.025325695 -0.3161658 -0.18762165 0.03069872
000060 73 de c2 3c 4d 3a 22 be 84 c4 5a be e8 5d 17 3c
       0.023787713 -0.15842552 -0.21364027 0.009238698
000070 58 09 f3 3d bb ec 06 3e ee f7 08 be 40 a4 20 bd
       0.118670166 0.13176243 -0.13375828 -0.03921914
000080 a3 25 c6 3d be 8a 9a 3d e4 fa 14 3e ff 00 a6 3d
       0.096751474 0.07545994 0.14548832 0.08105659
000090 ca 0e 8c bd 62 e1 23 3d 63 18 f0 3d 1a 61 0e bd
       -0.06838758 0.040009864 0.117234014 -0.034760572
0000a0 b0 58 bd 3d 5d 61 e9 be 4b 89 12 3f 80 26 2a bd
       0.092454314 -0.45582095 0.5724074 -0.041540623
0000b0 41 a8 0c be ba 74 b5 be f7 b9 b6 3d bc 59 80 bd
       -0.13736059 -0.35440618 0.08922189 -0.062671155
0000c0 18 61 1e be 1d 03 69 be ff 88 9f b6 73 46 24 be
       -0.15466726 -0.22755094 -4.7545177e-06 -0.16042499
0000d0 96 78 92 ba f6 bf 4a b7 d6 7e 86 ba f9 4a ad bd
       -0.0011174853 -1.2084833e-05 -0.0010261189 -0.084615655
0000e0 1c 5f 30 bd fb ec a8 bb 6a e1 9b bc 30 11 03 ba
       -0.043059453 -0.0051552034 -0.019028384 -0.00049998146
0000f0 a5 2c b1 b9 2f 75 83 35 46 e5 35 3b f9 63 dc bd
       -0.00033793334 9.794365e-07 0.0027755066 -0.10761256
000100 8f 95 9c bd ca 17 f1 bc e2 2a 45 b7 f5 aa af b6
       -0.076457135 -0.029430289 -1.1752099e-05 -5.2353084e-06
000110 cd 83 1c 38 0d 68 88 ba 60 9f 84 3c c7 80 25 b7
       3.7316047e-05 -0.0010406986 0.016189277 -9.86475e-06
000120 15 89 17 bc 67 2b 06 bb 5b f9 3b bd 30 d5 0c b6
       -0.0092489915 -0.0020472647 -0.0458921 -2.0985717e-06
000130 aa 0e 3c bc b6 aa 81 ba 0d e0 d9 bd bc 9f c8 b6
       -0.011478106 -0.0009892795 -0.106384374 -5.97906e-06
000140 4c 72 91 bc 66 de 3a 3a 7c ff e3 35 f1 55 2d 35
       -0.017754696 0.0007128477 1.6987174e-06 6.4572583e-07
000150 8a a4 3d 37 2f 4e 90 36 a1 68 80 36 a7 b5 88 ba
       1.1303588e-05 4.300636e-06 3.8268777e-06 -0.0010430113
000160 3b 12 ee ba 93 95 10 ba 25 98 ab b6 a8 bd 6e bd
       -0.0018163392 -0.00055154524 -5.113909e-06 -0.05828634
000170 45 a7 31 b5 5c 6a 1b bb 43 04 09 3b 94 32 13 be
       -6.618105e-07 -0.0023714518 0.0020907081 -0.14374763
000180 09 93 35 bd 16 70 8c ba a7 39 eb 3a aa c9 c6 bb
       -0.044329677 -0.0010714557 0.0017946259 -0.0060665207
000190 ae 83 27 3c 92 86 ad bb a8 d6 fb 3b 51 c9 11 3b
       0.010224266 -0.005295583 0.007685501 0.0022245238
0001a0 84 46 07 3b 68 ae 6d 3c 71 d4 61 bc 1f aa 00 bc
       0.0020641396 0.014506914 -0.01378356 -0.00785306
0001b0 7a 82 8e bb 70 71 8a 3b 63 29 20 3d 02 4f 63 3c
       -0.00434905 0.0042249486 0.03910197 0.013873817
0001c0 37 87 96 3c ac b7 7d 3c fa 22 83 bc 99 9d cb bc
       0.018375022 0.015485685 -0.016007889 -0.024855422
0001d0 5c fb c3 bc 4c b7 3f 3b f9 ab 34 bc b8 92 34 3b
       -0.023923568 0.002925354 -0.01102733 0.0027553272
0001e0 54 9e ab 3c 84 23 c5 3b 94 21 5e bd 8d 90 b8 3a
       0.02094952 0.0060161967 -0.05423124 0.0014081165
0001f0 96 a6 f8 bc a8 f8 61 3b bd c3 ac 3b 34 af 78 3b
       -0.030352872 0.0034480486 0.0052723573 0.0037946226
000200 ae c5 4c 3c d8 d9 cf bc b0 64 5d 3c e9 45 b6 bb
       0.012498302 -0.02537243 0.013512775 -0.005562533
000210 74 9c df 3a 89 89 0d 3c 1f 72 59 3c e3 af 23 bc
       0.0017060176 0.008638748 0.0132718375 -0.009990665
000220 55 89 ca 3b 33 d1 7d 3b 9c b5 77 3b d7 1a 31 3b
       0.006180922 0.0038729429 0.0037797457 0.0027024054
000230 90 d6 cb bb dc 0b ec 3b d0 f3 01 ba b8 45 28 ba
       -0.006220646 0.007203562 -0.00049572904 -0.00064190803
000240 04 ab 4c bf 7e dc 47 be 9c 77 aa 36 85 d7 3c bf
       -0.7994845 -0.19517705 5.080319e-06 -0.73766357
000250 b0 2f 1a 3d 1d cd 1b 34 f2 62 16 b5 03 f0 33 bf
       0.037643135 1.451012e-07 -5.602334e-07 -0.70288104
000260 b2 6c 5f bd 85 f4 c6 bd eb b1 71 be 5c 92 17 36
       -0.05454702 -0.09714607 -0.23603027 2.2585946e-06
000270 96 b5 b3 be 16 6c 22 3e 04 46 59 bf 2e 20 33 bf
       -0.35099477 0.15861544 -0.8487246 -0.6997098
000280 e5 09 cb b4 52 dc a6 be 72 ef 2c 35 e1 2d 37 bf
       -3.7818896e-07 -0.32589966 6.442343e-07 -0.7155438
000290 58 c9 a8 3d a0 10 95 3e 87 6f b4 be b2 fa 3b bf
       0.08241528 0.29114246 -0.3524134 -0.73429406
0002a0 37 b5 a0 3e ed b8 64 3d ae 89 8d be cf f1 7c 37
       0.31388256 0.05584042 -0.27644104 1.5076671e-05
0002b0 69 5c 85 36 50 a7 e8 35 3a b0 97 be b2 d1 33 3a
       3.974467e-06 1.7334041e-06 -0.29626638 0.0006859555
0002c0 5e 9f 11 bf 11 69 f0 bd 9c 3f 2d 36 14 d2 ed bd
       -0.568838 -0.1173879 2.5816034e-06 -0.11612335
0002d0 63 eb 0e be 88 3d 5d be 7b b6 97 39 8a 5e 38 3d
       -0.1395698 -0.21605504 0.00028936923 0.045012034
0002e0 c6 e8 9d bc 56 32 7b bd 57 78 f2 3d 62 78 40 be
       -0.019276034 -0.0613273 0.11839359 -0.18795922
0002f0 d7 e0 66 b5 cb 7b 39 bf a4 71 68 bc eb af 4f bf
       -8.600886e-07 -0.7245452 -0.01418725 -0.81127805
000300 ab 47 fb be e7 0d 3d be 96 81 e3 bd f1 fb 55 3e
       -0.49078116 -0.18462335 -0.11108701 0.2089689
000310 08 28 ce 3e 93 50 ea 3e 48 5b 99 3d d6 b1 c7 bd
       0.40264916 0.45764598 0.07488114 -0.097507164
000320 97 63 33 3f ea 8e 4e 3f 69 bc af be 20 d3 85 3e
       0.7007384 0.8068682 -0.34323433 0.26137638
000330 90 3d 0e be d8 ea 29 3f 2c b4 d5 be 5c 03 45 3f
       -0.13890672 0.6637397 -0.41739023 0.7695825
000340 3d 96 0f 3f 44 98 0e 3f a1 e0 d4 3e b6 53 61 3e
       0.5608862 0.5570109 0.41577628 0.2200459
000350 d8 28 28 3d 34 29 ad bd 8a 61 08 3f 8d fa 57 be
       0.041054577 -0.084551245 0.5327383 -0.21091671
000360 f5 94 39 3f 8a b0 4f 3f 88 a7 d3 be b9 41 23 3d
       0.72492915 0.8112875 -0.41338754 0.0398576
000370 97 3e 09 3f 6c b1 94 3e 35 00 c2 3d 73 6f c8 bd
       0.5361113 0.29041612 0.09472696 -0.09786882
000380 9d 35 cd 3e d2 72 50 3e 82 89 11 3f 5f 20 40 3f
       0.40079966 0.203563 0.56850445 0.75049394
000390 62 d4 49 be 8b 4e a9 3e 81 ee 1c 3f 93 cb 92 3e
       -0.19709924 0.33067736 0.6130143 0.2867094
0003a0 5d d6 aa 3e d0 22 a6 bd 3b 37 59 3e b9 93 75 be
       0.3336667 -0.08112109 0.21212475 -0.23982133
0003b0 de 48 01 3f 41 2f 73 be 40 67 59 3e 76 84 9e bf
       0.5050181 -0.23748495 0.21230793 -1.2384174
0003c0 71 74 7c bd 14 d4 02 bd 8a a4 23 26 a9 c0 52 be
       -0.061634485 -0.031940535 5.6774977e-16 -0.20581307
0003d0 1f 60 dd a8 be 87 d7 a5 d8 eb 06 a6 fe 09 37 bb
       -2.4577615e-14 -3.7388537e-16 -4.6810217e-16 -0.002792954
0003e0 3c d7 e7 29 3c 24 a4 b4 5d ab d3 a8 a0 6f 27 27
       1.0295798e-13 -3.0573744e-07 -2.3500023e-14 2.3236418e-15
0003f0 0e e0 5c b6 46 81 65 bd 5f ac fa a5 55 e3 81 be
       -3.2912972e-06 -0.056031488 -4.348489e-16 -0.25368753

lin.weight f4 [2, 48]
000000 a3 5f 97 3d de 47 82 3e 36 63 ef 3b bb 1a fb 3e
       0.07391288 0.25445455 0.007305528 0.4904383
000010 0a 37 ff bc 67 87 c5 3e fb 57 6c 3d 40 a7 77 3d
       -0.031154174 0.38579866 0.057701092 0.060462236
000020 4c 41 69 3b 60 5c f3 3c 9a 55 09 3a de 56 35 3d
       0.0035591898 0.029707134 0.0005238891 0.044272296
000030 23 0e e0 3e f5 2d c1 3e e2 b4 5e bd b6 c5 b9 3e
       0.43760785 0.37730375 -0.054371722 0.36283654
000040 70 e6 07 3e f4 ca 95 3e f4 77 00 24 8c d7 c0 3c
       0.13271499 0.29256403 2.785718e-17 0.02354028
000050 7b e4 0e 3e fe 90 8b 3c 20 52 5e be 1d a7 8d 35
       0.13954346 0.017036911 -0.21711016 1.0553955e-06
000060 02 f8 95 3d 44 c0 d3 3e 63 c8 8c bd 3a 49 88 bc
       0.07322694 0.41357625 -0.06874158 -0.01663648
000070 64 5e 28 3f 17 2d 16 3f 84 02 2b 3d 1f 80 03 be
       0.6576903 0.5866255 0.041750446 -0.12841843
000080 93 9a 28 3f 30 67 93 bd 76 47 15 3f 15 fa 30 bf
       0.6586086 -0.07197416 0.58312166 -0.69131595
000090 75 55 0f 3f ff 9a d8 be 60 70 81 3e c0 76 2d b8
       0.5598977 -0.42305753 0.25281048 -4.135701e-05
0000a0 a0 c3 06 3e aa c8 ab 3e 6e 0b a4 bd 0d 5c 10 3f
       0.13160563 0.33551532 -0.080099925 0.5639046
0000b0 fd fb 0e 3d 8f c0 51 3e eb 6c 37 3f 4e 96 df 3e
       0.034908284 0.20483612 0.7165057 0.4366936
0000c0 f5 42 93 bd 2f 48 82 be 83 6a 02 bc 6b 1a fb be
       -0.071905054 -0.25445697 -0.007959965 -0.49043593
0000d0 38 0e 6d bd a3 87 c5 be af d1 03 be a3 a5 77 bd
       -0.05787489 -0.38580045 -0.12872957 -0.060460698
0000e0 8c 7e 2f bb 8a a1 71 bd eb 9c 92 b9 3e 40 35 bd
       -0.0026778309 -0.058991946 -0.00027964203 -0.04425072
0000f0 f6 0b e0 be 8e d2 af be d3 0b 84 3d c5 6f 4a be
       -0.43759125 -0.34340328 0.06447568 -0.19769199
000100 83 ac c4 bd 23 ca 95 be 9c 70 00 a4 81 7c c4 bc
       -0.096032165 -0.2925578 -2.785096e-17 -0.02398515
000110 0b 69 d3 3d 5c fc d1 bc 69 0a 59 3e 26 d7 bb b5
       0.1032277 -0.02563303 0.21195377 -1.3995202e-06
000120 be 13 ae bd 52 f5 c1 be 1c 52 6d 3e c8 22 77 bd
       -0.08499859 -0.37882477 0.23175853 -0.060335904
000130 a9 0e 11 bf e2 3f c4 be 34 6b fd 3c d9 a4 2a 3e
       -0.56662995 -0.3832999 0.030934907 0.16664447
000140 a3 a7 28 bf 9a 3a 2b 3e 18 77 ca be 88 2f 31 3f
       -0.65880793 0.16721573 -0.39543986 0.6921315
000150 8e 5e 13 bf 0e c9 ae 3e e7 6e c2 be 03 73 a5 38
       -0.57566154 0.34137768 -0.37975237 7.889236e-05
000160 43 bb 06 be 55 00 93 be dc 0a a4 3d e4 3e 16 bf
       -0.13157372 -0.2871119 0.08009884 -0.58689713
000170 07 0b 0f bd 0f a8 71 be 81 05 29 bf fa 92 aa be
       -0.034922626 -0.23599266 -0.66024023 -0.3331526

lin.bias f4 [2]
000000 93 ef 21 3f 13 bb 25 bf
       0.63256186 -0.6473858
